checkpoint/SRCNN915/ckpt.pt (torch, 246447 bytes, 18 tensors)

patch_extraction.weight f4 [64, 3, 9, 9]
0	0xba16a7e1	-0.0005747062
1	0xba9ef64c	-0.0012127846
2	0x3abaf276	0.0014262933
3	0x399cd5f1	0.00029914037
4	0x3a1e2941	0.0006033369
5	0xbb3a1e81	-0.002839953
6	0x39223445	0.00015468996
7	0xba9ca933	-0.0011952281
8	0x3a7db226	0.000967773
9	0x3ab1b18e	0.0013556944
10	0xb9a6a65a	-0.0003178593
11	0xbaaf6d1a	-0.0013383955
12	0xba321a51	-0.00067940826
13	0xba722616	-0.00092372426
14	0x3a86a23e	0.0010271741
15	0xba950dbd	-0.0011371892
16	0x3a48e76c	0.0007663879
17	0x3a68e620	0.0008884389
18	0x3aa5032e	0.0012589449
19	0xba27c941	-0.00064005336
20	0x3a956f6f	0.0011401008
21	0xba31a497	-0.000677654
22	0xbac4b0a6	-0.0015006259
23	0xbac19c6b	-0.0014771348
24	0xb9ff66ad	-0.0004871389
25	0x3983cb25	0.00025137622
26	0xb9e04e7f	-0.00042783094
27	0x3798f4b0	1.8233754e-05
28	0x388fafd7	6.851524e-05
29	0xb9c6d011	-0.00037920524
30	0xb9a5e36b	-0.00031640692
31	0x39f21683	0.0004617461
32	0xb910c1ed	-0.00013805153
33	0xbaaf0b4c	-0.0013354807
34	0xb95fb681	-0.00021334925
35	0xba461e42	-0.00075576094
36	0xba118ee5	-0.0005552604
37	0xb92491d9	-0.00015694591
38	0x3accedf0	0.0015634876
39	0xb9d50c4f	-0.00040635696
40	0x3a58f9c7	0.0008276966
41	0x3abe7dd2	0.0014533347
42	0xba1cbc07	-0.0005978946
43	0xba686e36	-0.00088665204
44	0x39300188	0.00016785238
45	0xba31ea47	-0.0006786924
46	0x3a026055	0.0004973461
47	0xba443f29	-0.0007486218
48	0xba289a6f	-0.0006431704
49	0xba9c0de5	-0.0011905996
50	0xba30179f	-0.0006717387
51	0xbac1e3ac	-0.0014792583
52	0x3a8e6efe	0.0010866818
53	0x39ef283b	0.00045615606
54	0x3a963bd7	0.0011461925
55	0xbaa0e736	-0.0012275937
56	0xba08a39e	-0.0005212369
57	0xba3bb5ae	-0.0007160556
58	0xb9619ce1	-0.00021516114
59	0xba29d6bb	-0.0006478836
60	0x3a4e9baa	0.0007881472
61	0x3aa226e6	0.0012371212
62	0x390a777d	0.00013205218
63	0x3a9ee55f	0.0012122801
64	0xba454484	-0.0007525163
65	0xba57ba4c	-0.00082293595
66	0xb923a47d	-0.00015606168
67	0x3a98e3c7	0.0011664563
68	0x3a8dcd8a	0.0010818702
69	0x3a76076f	0.0009385263
70	0x3a60d9a6	0.0008577354
71	0x396d1821	0.0002261107
72	0xb7da7795	-2.604331e-05
73	0x39fabea6	0.0004782576
74	0xbabc6600	-0.001437366
75	0x3ac972c5	0.0015369287
76	0x3a56ac58	0.00081891334
77	0x39941279	0.00028242523
78	0xba42a5e2	-0.0007425231
79	0xb917d887	-0.00014481145
80	0xbaea62c6	-0.001788222
81	0xba9880ab	-0.0011635026
82	0xb7eec103	-2.8461689e-05
83	0xbb0205c1	-0.0019839855
84	0x39c818ec	0.0003816554
85	0xb9054b96	-0.00012712026
86	0x39ea5f0f	0.00044702782
87	0x3aa5b38e	0.0012642012
88	0xbaa01b32	-0.0012215136
89	0xb9c29eba	-0.00037120824
90	0x3a9ae8ec	0.0011818684
91	0x3a9e5368	0.00120793
92	0x3a5d1bfe	0.0008434652
93	0xbad6d64b	-0.0016390769
94	0xbaa0c5bf	-0.0012265964
95	0xb98664fd	-0.00025633714
96	0xbb075042	-0.0020647203
97	0x3ab074c4	0.0013462533
98	0xbb0bf589	-0.0021356067
99	0x3aaaff18	0.0013045995
100	0xba4a929e	-0.0007727536
101	0xba341ba9	-0.0006870577
102	0xbad2cc88	-0.0016082684
103	0x3ade8d7a	0.0016979419
104	0xbab200cb	-0.0013580559
105	0xba4b7557	-0.00077613204
106	0xbacca591	-0.0015613307
107	0xb9527a6a	-0.00020072763
108	0x3a6b006b	0.0008964601
109	0xba6e7322	-0.00090961356
110	0x3a3843ae	0.0007029128
111	0x393e65ea	0.00018157778
112	0xba5508b8	-0.00081266044
113	0xbaf4ebd2	-0.0018686003
114	0xb96c2330	-0.00022519822
115	0x3a81fcb6	0.0009917233
116	0xba5b7b99	-0.00083726045
117	0xbae7896e	-0.0017664859
118	0x3a2f23d9	0.0006681062
119	0xba762b54	-0.00093906117
120	0xb9dbcc6c	-0.0004192324
121	0xbab46257	-0.0013762218
122	0x3a2548a2	0.00063050736
123	0xba368009	-0.0006961828
124	0xbb2fa19d	-0.002679921
125	0x39e7cd58	0.00044212746
126	0x3ac07181	0.0014682264
127	0x397e52ad	0.00024254127
128	0x39c69504	0.00037876528
129	0xba3b391b	-0.0007141993
130	0xba253f8c	-0.000630372
131	0x3b0d8d0b	0.002159896
132	0x3b0afba8	0.0021207128
133	0xba68fdbb	-0.00088879064
134	0x3b006bd7	0.0019595528
135	0x3a46a49d	0.000757763
136	0x3b13df53	0.0022563532
137	0xb9f3d8ae	-0.0004651001
138	0xba4863b5	-0.0007644252
139	0x394e5406	0.00019676992
140	0x3a8aa18c	0.0010576709
141	0x3963f75b	0.00021740554
142	0xb9488f7f	-0.00019126943
143	0x3abf16ee	0.0014578977
144	0x3976293c	0.00023475749
145	0x38baa1cd	8.899309e-05
146	0x39bee125	0.0003640737
147	0xb9eb78b1	-0.00044912615
148	0xba97e0b9	-0.0011587358
149	0x3a242402	0.0006261469
150	0x3a7bb47c	0.00096017844
151	0xba9b6f95	-0.0011858816
152	0xba6da2e3	-0.00090651045
153	0xbaf4a6e2	-0.0018665458
154	0xbac51c0d	-0.0015038267
155	0x397dccd9	0.00024204272
156	0x3a29191a	0.0006450579
157	0xbad89d4b	-0.0016526369
158	0x3aaa64a2	0.0012999962
159	0x3a8f0fa0	0.0010914691
160	0xba96a95d	-0.0011494566
161	0xbaa0402b	-0.0012226155
162	0xba802c4e	-0.0009778829
163	0xbaa4dfc8	-0.0012578899
164	0xbab404bd	-0.0013734322
165	0xba650d57	-0.00087376445
166	0x3a901c2f	0.0010994727
167	0xba2881d0	-0.0006428035
168	0xba312e49	-0.0006758911
169	0x3abb923d	0.001431055
170	0xba668f53	-0.00087951607
171	0x3a397199	0.00070741173
172	0xba568642	-0.0008183458
173	0x3a9ec520	0.0012113191
174	0xb89b8a4f	-7.416738e-05
175	0xba3db5c7	-0.0007236865
176	0xba0ed614	-0.000544877
177	0xba23a2cf	-0.0006242217
178	0x39e6230f	0.0004389514
179	0xb9e49b6b	-0.00043603344
180	0x3a80857d	0.0009805408
181	0x38e054f5	0.00010696977
182	0xba361f89	-0.0006947448
183	0xb93b7e43	-0.00017880746
184	0x3a7ecc26	0.00097197515
185	0xba30cc95	-0.0006744352
186	0xba6f2838	-0.00091231195
187	0x3a71332d	0.0009201046
188	0x39aa85c6	0.00032524596
189	0x3adbdce2	0.0016774202
190	0xb9c4575a	-0.00037449115
191	0x395a4c72	0.00020818578
192	0xba75013e	-0.00093461934
193	0xb9ff5bed	-0.0004870588
194	0xbaff3d80	-0.0019473284
195	0xb90caa9a	-0.00013414994
196	0xba31ea93	-0.00067869684
197	0x3aa8dc68	0.0012883069
198	0xbac9ab4d	-0.0015386135
199	0xbad51495	-0.0016256744
200	0x395be732	0.00020971594
201	0x3a122ace	0.00055758364
202	0x395531f8	0.00020331878
203	0x391c029f	0.00014878296
204	0xb9fe309c	-0.00048482872
205	0x3a096025	0.0005240462
206	0xb842f870	-4.648458e-05
207	0x3984397e	0.00025219837
208	0x3aaac304	0.001302809
209	0x3aa5f959	0.0012662812
210	0xba1b0edb	-0.00059149944
211	0x39883f28	0.00025986996
212	0xb9d01987	-0.0003969187
213	0xb995f6e9	-0.00028603457
214	0x37b840e4	2.1964726e-05
215	0xb979d31c	-0.00023825135
216	0xbb52929d	-0.0032130845
217	0x3741527b	1.15229e-05
218	0xba70cedd	-0.00091860985
219	0x3a780e68	0.0009462596
220	0xbae7a074	-0.001767172
221	0xb9d02b90	-0.00039705308
222	0xb9938ca2	-0.00028142805
223	0xb9492d80	-0.00019185804
224	0x3b04eaf1	0.0020281638
225	0xbb0b7f07	-0.002128543
226	0xba5c7e2f	-0.0008411137
227	0xba7e6f4a	-0.00097059144
228	0xb95f32fe	-0.00021285933
229	0x39fa92f2	0.000477932
230	0x39c2404e	0.00037050474
231	0x3a7de642	0.0009685495
232	0xb912d9a6	-0.00014004725
233	0x3a8e6638	0.0010864204
234	0x3a218b34	0.00061624055
235	0xb951b20b	-0.0001999812
236	0x3ab91a04	0.0014122133
237	0xbac7061c	-0.0015184316
238	0x39d7289e	0.00041038258
239	0xbaa28812	-0.0012400171
240	0xbade0b51	-0.0016940628
241	0xb92c34ab	-0.00016422819
242	0xb9170184	-0.00014401047
243	0xbcc2d9a4	-0.02378542
244	0xbc3fd8dd	-0.011709419
245	0x3ac7b03e	0.0015235019
246	0x3c02faf5	0.007994403
247	0x3c5bd32d	0.013417047
248	0x3c8a935a	0.016915966
249	0x3c4d9b5e	0.012549249
250	0x3b0f5d45	0.0021875661
251	0xbc94bdbc	-0.018156879
252	0x3c0b7716	0.008512279
253	0x3c9abfec	0.018890344
254	0x3cf7005a	0.030151535
255	0x3d0f91b4	0.035051063

patch_extraction.bias f4 [64]
0	0xb989f1af	-0.00026310745
1	0x3cd49bd2	0.025953207
2	0xb93b1a2d	-0.00017843461
3	0xbc728f5c	-0.014804687
4	0x3ce29a09	0.02766134
5	0x39f8f6c7	0.0004748611
6	0xb91cd709	-0.00014957426
7	0xbd879cde	-0.06621717
8	0xbacb74ce	-0.0015522481
9	0x3ca6a76a	0.020343501
10	0xb87144ff	-5.7523135e-05
11	0x00000000	0.0
12	0xb9444364	-0.00018717122
13	0xb90bea56	-0.0001334337
14	0xb8a996cd	-8.086637e-05
15	0xb9440589	-0.00018694079
16	0x00000000	0.0
17	0xb89603b1	-7.153245e-05
18	0xbc12d7a8	-0.008962549
19	0x00000000	0.0
20	0x00000000	0.0
21	0x3d02cfa2	0.031936295
22	0x00000000	0.0
23	0x3beb6fdc	0.0071849655
24	0xb8f6612e	-0.00011748295
25	0xb93dd5b5	-0.00018104057
26	0xbddbe754	-0.10737482
27	0x3ca5f498	0.020258233
28	0x3cf6369b	0.030055335
29	0xbcdbe165	-0.026840875
30	0xb93e87f1	-0.00018170454
31	0x00000000	0.0
32	0xb8d2917a	-0.000100406774
33	0xbeb7b0eb	-0.35877165
34	0xb8fe372f	-0.000121219426
35	0xb8b51188	-8.634018e-05
36	0xb92dfe93	-0.00016593402
37	0xb8327a60	-4.2552478e-05
38	0xbc7a8652	-0.0152908135
39	0x3c91334d	0.017724657
40	0xb94a7748	-0.00019308657
41	0xb8c29a78	-9.279413e-05
42	0x00000000	0.0
43	0x00000000	0.0
44	0xb924a02d	-0.00015699929
45	0xb7f3a43b	-2.9044333e-05
46	0x3c413379	0.011792057
47	0xb92f197b	-0.00016698793
48	0xb8c8503b	-9.551687e-05
49	0x00000000	0.0
50	0xb92a9877	-0.00016269261
51	0x399ba976	0.00029690162
52	0xb82b1e9f	-4.0798095e-05
53	0x3cb99bbf	0.022657273
54	0x3d1616a1	0.036642674
55	0xb8c74290	-9.501458e-05
56	0xbcc4fcb8	-0.024046287
57	0x3bc2c6b2	0.0059440965
58	0xb9066c82	-0.00012819658
59	0xb960460b	-0.00021388398
60	0xb92cadbc	-0.0001646792
61	0xbd9939f0	-0.07481754
62	0xbd06fd96	-0.032956682
63	0xb85da6fc	-5.2846022e-05

nonlinear_map.weight f4 [32, 64, 1, 1]
0	0xbb0862bf	-0.002081081
1	0x3b77c88f	0.0037808751
2	0xb8387a23	-4.3982767e-05
3	0x3bfc8f99	0.007707548
4	0x3cd6733a	0.026177991
5	0xbcbd207e	-0.023086783
6	0xba9164d1	-0.0011092668
7	0xbd0248c9	-0.031807695
8	0x3ca4e0bc	0.020126693
9	0x3c9e920e	0.019356754
10	0xb84f2102	-4.9383387e-05
11	0x3a2d583c	0.0006612574
12	0xb91beb4e	-0.0001486961
13	0xb9dd157f	-0.0004216842
14	0xba8965a7	-0.0010482565
15	0xb9a8a098	-0.0003216311
16	0x39932d18	0.00028071622
17	0xb962a047	-0.00021612748
18	0x3c1d9845	0.009618823
19	0xb9d2132f	-0.00040068614
20	0xb846cc5a	-4.7397196e-05
21	0x3d168adf	0.03675353
22	0xba9fe9d7	-0.0012200427
23	0x3ca3cb2b	0.019994339
24	0xb7d4fa3d	-2.5388896e-05
25	0xbacd188a	-0.0015647572
26	0xbd0e3083	-0.034714233
27	0x3d11ad3c	0.0355656
28	0x3d21c44d	0.039493848
29	0x3bbe757e	0.005812346
30	0x39ce8361	0.00039389267
31	0x398bb010	0.00026643323
32	0x3983a0f5	0.0002510619
33	0xbe3ddb86	-0.18540773
34	0xba5700ea	-0.00082017353
35	0xba0c2fa7	-0.0005347677
36	0x398ef761	0.00027268662
37	0xb9a7db0e	-0.0003201593
38	0x3c2981c2	0.010345878
39	0x3cac4b0d	0.02103188
40	0xb9d83af7	-0.00041242663
41	0xba54a8c6	-0.00081123074
42	0x3a33e8b7	0.00068629853
43	0x3a362fa3	0.00069498474
44	0xba859a3a	-0.0010193058
45	0x39c4d438	0.00037542148
46	0x3bf47218	0.00745989
47	0x3a0a170d	0.0005267717
48	0x39c249d4	0.0003705757
49	0xb9b5f0b3	-0.00034702345
50	0xba50ee10	-0.00079700444
51	0x3c8a5163	0.016884511
52	0x3a0becfd	0.0005337743
53	0x3cad59f5	0.021161059
54	0x3d0cc773	0.034369897
55	0x3a6bba19	0.0008992269
56	0xbd6c7263	-0.057726275
57	0x3c936311	0.017991574
58	0x3a830125	0.0009994848
59	0x389131df	6.923428e-05
60	0x39e92c32	0.0004447415
61	0xbd622e74	-0.055220082
62	0xbcc20826	-0.023685526
63	0xb97d6908	-0.00024167087
64	0xba23e48c	-0.00062520127
65	0xbb28c2ba	-0.0025750832
66	0xba1ade56	-0.00059077644
67	0x3d42fb95	0.04760321
68	0x3d003afa	0.031306244
69	0x3c4aad08	0.012370355
70	0x3ad8055f	0.0016481093
71	0x3d18ae42	0.03727556
72	0x3d3adf87	0.04562333
73	0xbd582f09	-0.05277923
74	0x3a2687df	0.0006352644
75	0x3a06a799	0.00051366683
76	0xba7e5499	-0.0009701937
77	0x392b7cd9	0.0001635434
78	0xba498c50	-0.00076884497
79	0x39ba24c1	0.00035504068
80	0x3afd955d	0.0019346882
81	0xb8812ce4	-6.159561e-05
82	0x3d597cf2	0.053097673
83	0xbb326143	-0.0027218617
84	0x3b4d70a8	0.0031347666
85	0xbcbf0489	-0.023317592
86	0x36a4e613	4.914365e-06
87	0x3d1ef280	0.038805485
88	0x395a7c3f	0.00020836385
89	0x3927ee14	0.00016015052
90	0xba4f5b44	-0.0007910023
91	0xba11ff74	-0.00055693765
92	0xbbd1982c	-0.006396314
93	0xbd79d521	-0.06099427
94	0xb8d02138	-9.9244004e-05
95	0xb9bef9ad	-0.00036425647
96	0x3a9acabf	0.0011809691
97	0x3d8076d8	0.06272668
98	0xbb0bd055	-0.0021333892
99	0x3a2d3b3e	0.0006608254
100	0x3b0a36e3	0.0021089844
101	0xba7b7650	-0.000959252
102	0x3d3cc375	0.04608484
103	0xbc809bd6	-0.015699308
104	0x3a870806	0.0010302074
105	0xba7f8f15	-0.0009748799
106	0x39d8ceaf	0.00041352722
107	0xbab31ce2	-0.0013665224
108	0xb8e634cf	-0.00010977091
109	0x3a90f288	0.0011058608
110	0xbd6d0a27	-0.05787101
111	0x39c1dc91	0.00036976163
112	0x3a6b4379	0.0008974593
113	0x391f8046	0.00015211207
114	0x3a4fdf22	0.0007929673
115	0x3d53c6f1	0.051703397
116	0xbadb5a09	-0.0016735207
117	0xbd59659b	-0.053075414
118	0xbcdb9913	-0.02680639
119	0xbae387e7	-0.0017359228
120	0x3c299281	0.010349871
121	0x3d3efaf4	0.046626046
122	0xb8b18c5a	-8.46616e-05
123	0xbaf528fe	-0.0018704233
124	0x3a29b7c4	0.00064742216
125	0x3ce6b66f	0.028163163
126	0xbd49a872	-0.049232908
127	0x3a828879	0.0009958885
128	0xba3d30d5	-0.00072170544
129	0xba92b9ea	-0.0011194323
130	0xba8870e2	-0.0010409618
131	0xba6e9b25	-0.0009102098
132	0xbb0095a3	-0.001962044
133	0xbac96904	-0.001536638
134	0x3a9e274b	0.0012066154
135	0x3a1a68b1	0.0005890234
136	0x3a57705c	0.0008218342
137	0x3ad6feb8	0.0016402816
138	0x36f2fc80	7.241557e-06
139	0xb9b81e44	-0.00035117764
140	0xba10ae66	-0.00055191515
141	0xb906f857	-0.0001287175
142	0x3a0c8acb	0.0005361258
143	0x3aab95d1	0.0013090913
144	0x3ab36f26	0.0013689741
145	0x37b933e1	2.2077877e-05
146	0xba8ec7d5	-0.0010893295
147	0x393984b5	0.00017692412
148	0xbafbdae5	-0.0019215016
149	0x3a9adfda	0.001181598
150	0xb95872ce	-0.00020642133
151	0xbab638c4	-0.0013902416
152	0x383996ae	4.424777e-05
153	0x3a9d919b	0.0012021543
154	0xb9bff773	-0.00036614723
155	0xba006280	-0.000489749
156	0xba85e472	-0.0010215177
157	0xba9a03e1	-0.0011750424
158	0x39d61957	0.0004083614
159	0x39ec311f	0.00045050026
160	0xba22be01	-0.00062081224
161	0xb914cea4	-0.0001419136
162	0xb9b06668	-0.00033645635
163	0x399cf74b	0.00029938886
164	0xb801f5d8	-3.0984957e-05
165	0x390e6189	0.0001357851
166	0xbada2a8f	-0.0016644764
167	0xba393d8f	-0.0007066363
168	0x3a371b2d	0.00069849455
169	0x3aba49b9	0.0014212645
170	0xb967f61a	-0.00022121557
171	0x395e2b05	0.00021187596
172	0xb95d4028	-0.00021100102
173	0xb85304f7	-5.0310944e-05
174	0xba02cec3	-0.00049899163
175	0x3848f4f9	4.7911864e-05
176	0xbad48df6	-0.0016216624
177	0xba6c2451	-0.0009008097
178	0xba3485b9	-0.00068863813
179	0x3ab48839	0.0013773508
180	0x3a7987c4	0.0009518827
181	0xb94c43df	-0.0001948024
182	0xba12108e	-0.0005571925
183	0x3a43500e	0.0007450589
184	0xbacb1b33	-0.0015495777
185	0xba05e667	-0.000510788
186	0xba63cda6	-0.0008690007
187	0xba3477a5	-0.00068842835
188	0x3adf8dfb	0.0017055863
189	0xb86f49fe	-5.705095e-05
190	0x399f73e4	0.00030413189
191	0x3a0222cb	0.0004964291
192	0xbaa029d7	-0.00122195
193	0xbcb8f865	-0.022579381
194	0xb9ec1fc3	-0.00045037092
195	0x3d0e99a3	0.03481449
196	0x3d39a90e	0.04532724
197	0xbd040135	-0.032227714
198	0x3ab79f60	0.001400929
199	0x3c9427fa	0.018085469
200	0x3d3995d8	0.045308918
201	0xbd53971e	-0.05165779
202	0xba6174ac	-0.00086004543
203	0x3ab117bd	0.0013511103
204	0xbab2a2e0	-0.0013628863
205	0x3a095cad	0.0005239945
206	0x3a181b8f	0.00058024464
207	0xb9a2c2f4	-0.000310443
208	0xbab9c131	-0.0014171955
209	0xba2916c2	-0.00064502296
210	0x3d1689d9	0.036752556
211	0xb9df557e	-0.0004259757
212	0xba9fcb83	-0.0012191389
213	0xbc5a8193	-0.013336557
214	0xb98d2475	-0.00026920778
215	0x3d413c35	0.04717656
216	0x3a73714f	0.00092865987
217	0xbb1e353a	-0.0024140612
218	0x3d02f698	0.03197345
219	0x3ce5a424	0.02803237
220	0x3cb74d9a	0.02237587
221	0xbdfa678c	-0.12226781
222	0xba5dd13e	-0.00084616605
223	0x3a070094	0.00051499275
224	0x3add9d88	0.001690791
225	0x3e3dd470	0.1853807
226	0x3b05ecb4	0.0020435276
227	0x390e1c3c	0.00013552693
228	0xb952898d	-0.00020078402
229	0x3856fa14	5.125448e-05
230	0x3d179eed	0.037016798
231	0xbc37d1e0	-0.011219472
232	0x3a585fae	0.00082540035
233	0x3a37d8b2	0.0007013186
234	0x37c97cf8	2.401926e-05
235	0xba23b92c	-0.00062455493
236	0x3a89e87a	0.0010521554
237	0x3b046014	0.0020198869
238	0xbd6482d7	-0.05578884
239	0x380b9e8e	3.3287848e-05
240	0x3a41e070	0.00073958095
241	0x3926e864	0.00015917566
242	0xb848290a	-4.7721936e-05
243	0x3d34fb84	0.044185176
244	0x39ef14ba	0.00045601075
245	0xbd4168cb	-0.04721908
246	0xbc8442d2	-0.016145144
247	0xbaf3ccdf	-0.0018600485
248	0xbd14e8fc	-0.036355004
249	0x3d38db1b	0.04513083
250	0xbb03d5f0	-0.002011653
251	0x3ac4a696	0.001500326
252	0xba3e076f	-0.00072490325
253	0x3d6f844a	0.05847577
254	0xbda994d4	-0.0828034
255	0x3a4f1077	0.0007898877

nonlinear_map.bias f4 [32]
0	0xbd17e1ae	-0.03708046
1	0x3b5d771e	0.0033792923
2	0x00000000	0.0
3	0xbb293fb8	-0.0025825333
4	0xb9292295	-0.00016129979
5	0x00000000	0.0
6	0xbbfa070c	-0.0076302346
7	0x00000000	0.0
8	0xb97ab79e	-0.0002391026
9	0xbbfb5872	-0.0076704556
10	0x3d62e475	0.055393655
11	0xba08cfc0	-0.00052189454
12	0x3ce50e0e	0.027960803
13	0xbb81df44	-0.003963383
14	0xbbd47257	-0.006483357
15	0xbc0690d8	-0.008213244
16	0x3bf39e05	0.007434609
17	0xbc05b1b7	-0.008160046
18	0xb98a19d1	-0.00026340646
19	0xbc2e2317	-0.010628483
20	0xb932f58b	-0.00017066875
21	0xbbf4c3b0	-0.007469617
22	0x3e138e0c	0.14409655
23	0xbc15e606	-0.00914908
24	0xb8c8efb9	-9.581395e-05
25	0xb92d7254	-0.00016541156
26	0xbc06baa8	-0.008223213
27	0xbc171173	-0.009220469
28	0xbbc956e4	-0.0061443914
29	0xbc35c132	-0.011093425
30	0xb916251d	-0.0001431894
31	0x00000000	0.0

recon.weight f4 [3, 32, 5, 5]
0	0x3a989256	0.0011640291
1	0x3d79fe18	0.06103334
2	0x3db8a2f8	0.09015459
3	0x3da0bd43	0.07848599
4	0x3d24f4c1	0.040272478
5	0x3d284929	0.041085396
6	0xbc78adf3	-0.0151781915
7	0xbd851a99	-0.06499214
8	0x3c98e073	0.018661713
9	0x3daa7ebe	0.083249554
10	0x3d744908	0.05963996
11	0xbd78a257	-0.060701694
12	0xbe3035e0	-0.17208052
13	0xbd576c1d	-0.05259334
14	0x3dbd6091	0.09246934
15	0x3d5b1581	0.053487305
16	0xbad2c7e6	-0.0016081303
17	0xbd9ab7bf	-0.07554578
18	0xbc87ac5c	-0.01656168
19	0x3d87abda	0.06624575
20	0x3ccd0a67	0.025029374
21	0x3d2d3833	0.042289924
22	0x3d2fc0fb	0.04290865
23	0x3cfc4b47	0.030797614
24	0x3bae8929	0.0053264094
25	0xbc115d17	-0.008872292
26	0x3b55e0e4	0.0032635266
27	0x3c01d6d0	0.00792475
28	0xbb59d328	-0.0033237431
29	0xbca5d7ff	-0.020244597
30	0xbaaf95df	-0.0013396105
31	0x3d7c3f65	0.061583895
32	0x3db40772	0.087904826
33	0x3d505915	0.050866205
34	0xbbeddd60	-0.007259056
35	0x3b1c4dea	0.0023850151
36	0x3da90d05	0.082544364
37	0x3e05906b	0.13043372
38	0x3daf7509	0.085672446
39	0x3aa5e10d	0.0012655571
40	0xbc2a0708	-0.010377653
41	0x3d3c6fdd	0.04600512
42	0x3daadfdf	0.08343481
43	0x3d6b2271	0.057405893
44	0xbbefab86	-0.0073141484
45	0xbcc5a74c	-0.024127625
46	0xbc085758	-0.008321606
47	0x3b93b673	0.0045078336
48	0x3b1cebca	0.0023944252
49	0xbc6da424	-0.014504466
50	0xb9636e34	-0.00021689461
51	0xb9bca2cf	-0.00035979456
52	0x398430ab	0.00025213262
53	0x39b85c3b	0.00035163932
54	0x3a4e15c8	0.0007861522
55	0xba4a2be7	-0.00077122304
56	0x3ad8ddf6	0.0016545642
57	0x3ac996da	0.001538004
58	0x3ad5a53a	0.0016299852
59	0x39d0e7ca	0.00039845548
60	0x391d93c0	0.00015027728
61	0xbaa48783	-0.0012552593
62	0xbae5ce0c	-0.001753272
63	0x3a13a8ba	0.0005632747
64	0xb844dd7e	-4.6936322e-05
65	0xb94ba47a	-0.00019420861
66	0x3b666988	0.0035158116
67	0x3a910bf4	0.0011066184
68	0x3a5f45d8	0.00085171824
69	0x3960be17	0.00021433119
70	0x390c71d0	0.00013393839
71	0x3a072761	0.0005155709
72	0x3aca50c4	0.0015435447
73	0xba65cb2f	-0.00087659335
74	0x3aa7d6c0	0.0012805089
75	0x3922813a	0.00015497665
76	0xbd158d37	-0.036511626
77	0xbd5bfecc	-0.05370979
78	0xbd1e86e5	-0.038702864
79	0xbc0556d4	-0.008138377
80	0xbcbc87b7	-0.023013933
81	0xbaf3d475	-0.0018602746
82	0x3cd78202	0.02630711
83	0xbca6c1d9	-0.020356106
84	0xbd288a6e	-0.04114764
85	0xbd17b3cf	-0.037036713
86	0x3c843c93	0.016142165
87	0x3da68756	0.08131282
88	0x3c4fedc3	0.012690964
89	0xbd680573	-0.05664582
90	0xbd146801	-0.036232
91	0xbc8e043a	-0.017336
92	0x3cb8fe20	0.022582114
93	0xbc01583c	-0.007894572
94	0xbd32a08d	-0.043610144
95	0xbc1f4b8f	-0.009722604
96	0xbd0846aa	-0.033270516
97	0xbd1085f6	-0.035284005
98	0xbcf7a920	-0.030232012
99	0xbc1e14a2	-0.009648474
100	0x3c2a0c02	0.010378839
101	0xbc824bc2	-0.015905265
102	0xbcfce731	-0.03087196
103	0xbcaa81d5	-0.020813862
104	0x3b1df04a	0.0024099522
105	0xbb24e2da	-0.0025159628
106	0x3c2a1628	0.010381259
107	0x3cb99be4	0.022657342
108	0xbbfe0e2e	-0.007753155
109	0xbca2f5f9	-0.01989268
110	0xbc4f5154	-0.0126536675
111	0x3cb266a5	0.02177746
112	0x3d7ed4ba	0.06221459
113	0x3ca0278b	0.019550106
114	0xbcebcec6	-0.02878512
115	0xbc1445e6	-0.009049868
116	0xb858ec40	-5.1718438e-05
117	0x3ce38244	0.027772076
118	0x3bc18c76	0.005906637
119	0xbc8c8e32	-0.017157648
120	0x3c04afd5	0.008098562
121	0xbb851cf7	-0.004062291
122	0xbc140642	-0.009034695
123	0xbb0c8c00	-0.0021445751
124	0x3c1bb876	0.009504428
125	0xba2e5e6e	-0.00066516444
126	0xba1f66a1	-0.00060806616
127	0xba84174b	-0.0010077743
128	0x3b0a3610	0.0021089353
129	0xb97c8b95	-0.00024084591
130	0x3ada8d05	0.0016674107
131	0xba6b295b	-0.0008970701
132	0xba3d522e	-0.00072220236
133	0xb819d1f1	-3.6673566e-05
134	0xb79a8454	-1.841985e-05
135	0xbac66405	-0.0015136009
136	0xb9f3f816	-0.0004653341
137	0xba0644e6	-0.0005121961
138	0x39db4dbc	0.00041828852
139	0xbac3caa8	-0.0014937716
140	0x39ee265f	0.00045423486
141	0xba4dd6b2	-0.00078521215
142	0xba7ac0e5	-0.00095654867
143	0x3a09bd39	0.00052543316
144	0xba222d5c	-0.00061865686
145	0xba701854	-0.00091588986
146	0xba0f69ee	-0.0005470802
147	0x3a162e30	0.00057289284
148	0xba266ea8	-0.00063488865
149	0x396145cb	0.00021483672
150	0xbb0d32a4	-0.0021545077
151	0xbc0ff8c5	-0.008787339
152	0xbc298c8b	-0.010348449
153	0xbc1dc5f9	-0.00962972
154	0xbb9a896d	-0.0047160895
155	0xbb9b34d3	-0.0047365217
156	0x3c737f50	0.014861897
157	0x3ccb1b91	0.024793418
158	0x3bec2256	0.0072062416
159	0xbc1a4f13	-0.009418267
160	0xbba56c7a	-0.005048332
161	0x3cb57e87	0.02215506
162	0x3d42ccef	0.04755872
163	0x3cd0d00c	0.02548983
164	0xbc3a31cd	-0.0113644125
165	0xbbfa542c	-0.0076394286
166	0x3bf855f3	0.0075786053
167	0x3cc9ba98	0.024625108
168	0x3c4cb064	0.012493227
169	0xbbf75889	-0.007548396
170	0xbb1e5036	-0.0024156696
171	0xbbdc1600	-0.00671649
172	0xbbd721cb	-0.0065653077
173	0xbb679e96	-0.0035342327
174	0xbb17bcfb	-0.0023153413
175	0x39106016	0.00013768705
176	0x3b0a4758	0.0021099653
177	0xba548116	-0.00081063935
178	0xb79a5d50	-1.8401683e-05
179	0xbaaab4cf	-0.0013023856
180	0xbb2324d2	-0.0024893773
181	0xba9fef4c	-0.0012202053
182	0xba4e23ff	-0.000786364
183	0x39ee638e	0.00045469071
184	0x3aa3ab9b	0.0012487056
185	0xba075b8d	-0.00051634834
186	0x3a3067c9	0.00067293324
187	0x3abef3df	0.0014568529
188	0xba6df1a8	-0.0009076842
189	0x3af2f107	0.0018534967
190	0x3abbacd0	0.001431847
191	0xb9a86ac6	-0.0003212301
192	0x3adddfe3	0.0016927685
193	0x39b8cda7	0.00035248438
194	0x3a6119f2	0.0008586935
195	0xb99ab797	-0.00029509954
196	0xbabbce1c	-0.0014328393
197	0xba81248d	-0.0009852812
198	0xba915232	-0.0011087118
199	0x383ea54f	4.5453486e-05
200	0x3a92c3d7	0.0011197281
201	0xba30f64c	-0.0006750568
202	0x3a4aa66d	0.0007730488
203	0xba872d95	-0.0010313267
204	0x3aa5524d	0.0012613029
205	0x3a1ef570	0.0006063795
206	0xb55af463	-8.156696e-07
207	0x39caf1cf	0.00038708604
208	0xb9d96a56	-0.00041468692
209	0xba61657a	-0.000859819
210	0x3a1d3966	0.0005997628
211	0x3a672e5d	0.00088188594
212	0xb8aac902	-8.143672e-05
213	0x39e8bf87	0.00044393187
214	0xb9777243	-0.00023598321
215	0x3aca4743	0.0015432615
216	0x3a00a685	0.0004907626
217	0xb90312f8	-0.000125002
218	0xb8335df4	-4.2764426e-05
219	0xb94957db	-0.00019201582
220	0x3a899558	0.0010496778
221	0x39fffce0	0.00048825797
222	0xbb4dabb0	-0.0031382851
223	0x38b4b397	8.61652e-05
224	0x3b0a3e43	0.002109424
225	0xbb28fe84	-0.0025786469
226	0xbc0ef990	-0.0087264925
227	0xbc3c2ad2	-0.0114848185
228	0xbc3568a2	-0.01107231
229	0xbb61308d	-0.0034361214
230	0xbbf13df7	-0.007362123
231	0x3c41b77c	0.011823531
232	0x3cd4fd13	0.025999581
233	0x3c05b759	0.008161389
234	0xbc4c15e0	-0.012456387
235	0xbc21c289	-0.009873041
236	0x3ccfd9bb	0.025372377
237	0x3d45b50a	0.048268355
238	0x3cce9fb3	0.025222635
239	0xbc1c2746	-0.009530848
240	0xbc1a6195	-0.009422679
241	0x3bd87c84	0.0066066403
242	0x3cc751e6	0.024331044
243	0x3c5e5af5	0.0135714905
244	0xbbfd61f1	-0.007732623
245	0xbb9b284e	-0.0047350293
246	0xbc013d20	-0.0078881085
247	0xbc09fa82	-0.008421542
248	0xbbb43e88	-0.0055006184
249	0xbb1f9681	-0.0024351182
250	0xbc17f3d5	-0.009274443
251	0xbce6db79	-0.028180825
252	0xbd0d0233	-0.034425925
253	0xbcca54d6	-0.024698656
254	0xbbdabb90	-0.006675191
255	0xbcaebb42	-0.021329526

recon.bias f4 [3]
0	0xbcac3e2a	-0.021025736
1	0x3c15aac7	0.009134955
2	0x3c22d522	0.00993851

exp_avg f4 [64, 3, 9, 9]
0	0x00000004	6e-45
1	0x00000004	6e-45
2	0x00000004	6e-45
3	0x00000004	6e-45
4	0x00000004	6e-45
5	0x00000004	6e-45
6	0x00000004	6e-45
7	0x00000004	6e-45
8	0x00000004	6e-45
9	0x00000004	6e-45
10	0x00000004	6e-45
11	0x00000004	6e-45
12	0x00000004	6e-45
13	0x00000004	6e-45
14	0x00000004	6e-45
15	0x00000004	6e-45
16	0x00000004	6e-45
17	0x00000004	6e-45
18	0x00000004	6e-45
19	0x00000004	6e-45
20	0x00000004	6e-45
21	0x00000004	6e-45
22	0x00000004	6e-45
23	0x00000004	6e-45
24	0x00000004	6e-45
25	0x00000004	6e-45
26	0x00000004	6e-45
27	0x00000004	6e-45
28	0x00000004	6e-45
29	0x00000004	6e-45
30	0x00000004	6e-45
31	0x00000004	6e-45
32	0x00000004	6e-45
33	0x00000004	6e-45
34	0x00000004	6e-45
35	0x00000004	6e-45
36	0x00000004	6e-45
37	0x00000004	6e-45
38	0x00000004	6e-45
39	0x00000004	6e-45
40	0x00000004	6e-45
41	0x00000004	6e-45
42	0x00000004	6e-45
43	0x00000004	6e-45
44	0x00000004	6e-45
45	0x00000004	6e-45
46	0x00000004	6e-45
47	0x00000004	6e-45
48	0x00000004	6e-45
49	0x00000004	6e-45
50	0x00000004	6e-45
51	0x00000004	6e-45
52	0x00000004	6e-45
53	0x00000004	6e-45
54	0x00000004	6e-45
55	0x00000004	6e-45
56	0x00000004	6e-45
57	0x00000004	6e-45
58	0x00000004	6e-45
59	0x00000004	6e-45
60	0x00000004	6e-45
61	0x00000004	6e-45
62	0x00000004	6e-45
63	0x00000004	6e-45
64	0x00000004	6e-45
65	0x00000004	6e-45
66	0x00000004	6e-45
67	0x00000004	6e-45
68	0x00000004	6e-45
69	0x00000004	6e-45
70	0x00000004	6e-45
71	0x00000004	6e-45
72	0x00000004	6e-45
73	0x00000004	6e-45
74	0x00000004	6e-45
75	0x00000004	6e-45
76	0x00000004	6e-45
77	0x00000004	6e-45
78	0x00000004	6e-45
79	0x00000004	6e-45
80	0x00000004	6e-45
81	0x00000004	6e-45
82	0x00000004	6e-45
83	0x00000004	6e-45
84	0x00000004	6e-45
85	0x00000004	6e-45
86	0x00000004	6e-45
87	0x00000004	6e-45
88	0x00000004	6e-45
89	0x00000004	6e-45
90	0x00000004	6e-45
91	0x00000004	6e-45
92	0x00000004	6e-45
93	0x00000004	6e-45
94	0x00000004	6e-45
95	0x00000004	6e-45
96	0x00000004	6e-45
97	0x00000004	6e-45
98	0x00000004	6e-45
99	0x00000004	6e-45
100	0x00000004	6e-45
101	0x00000004	6e-45
102	0x00000004	6e-45
103	0x00000004	6e-45
104	0x00000004	6e-45
105	0x00000004	6e-45
106	0x00000004	6e-45
107	0x00000004	6e-45
108	0x00000004	6e-45
109	0x00000004	6e-45
110	0x00000004	6e-45
111	0x00000004	6e-45
112	0x00000004	6e-45
113	0x00000004	6e-45
114	0x00000004	6e-45
115	0x00000004	6e-45
116	0x00000004	6e-45
117	0x00000004	6e-45
118	0x00000004	6e-45
119	0x00000004	6e-45
120	0x00000004	6e-45
121	0x00000004	6e-45
122	0x00000004	6e-45
123	0x00000004	6e-45
124	0x00000004	6e-45
125	0x00000004	6e-45
126	0x00000004	6e-45
127	0x00000004	6e-45
128	0x00000004	6e-45
129	0x00000004	6e-45
130	0x00000004	6e-45
131	0x00000004	6e-45
132	0x00000004	6e-45
133	0x00000004	6e-45
134	0x00000004	6e-45
135	0x00000004	6e-45
136	0x00000004	6e-45
137	0x00000004	6e-45
138	0x00000004	6e-45
139	0x00000004	6e-45
140	0x00000004	6e-45
141	0x00000004	6e-45
142	0x00000004	6e-45
143	0x00000004	6e-45
144	0x00000004	6e-45
145	0x00000004	6e-45
146	0x00000004	6e-45
147	0x00000004	6e-45
148	0x00000004	6e-45
149	0x00000004	6e-45
150	0x00000004	6e-45
151	0x00000004	6e-45
152	0x00000004	6e-45
153	0x00000004	6e-45
154	0x00000004	6e-45
155	0x00000004	6e-45
156	0x00000004	6e-45
157	0x00000004	6e-45
158	0x00000004	6e-45
159	0x00000004	6e-45
160	0x00000004	6e-45
161	0x00000004	6e-45
162	0x00000004	6e-45
163	0x00000004	6e-45
164	0x00000004	6e-45
165	0x00000004	6e-45
166	0x00000004	6e-45
167	0x00000004	6e-45
168	0x00000004	6e-45
169	0x00000004	6e-45
170	0x00000004	6e-45
171	0x00000004	6e-45
172	0x00000004	6e-45
173	0x00000004	6e-45
174	0x00000004	6e-45
175	0x00000004	6e-45
176	0x00000004	6e-45
177	0x00000004	6e-45
178	0x00000004	6e-45
179	0x00000004	6e-45
180	0x00000004	6e-45
181	0x00000004	6e-45
182	0x00000004	6e-45
183	0x00000004	6e-45
184	0x00000004	6e-45
185	0x00000004	6e-45
186	0x00000004	6e-45
187	0x00000004	6e-45
188	0x00000004	6e-45
189	0x00000004	6e-45
190	0x00000004	6e-45
191	0x00000004	6e-45
192	0x00000004	6e-45
193	0x00000004	6e-45
194	0x00000004	6e-45
195	0x00000004	6e-45
196	0x00000004	6e-45
197	0x00000004	6e-45
198	0x00000004	6e-45
199	0x00000004	6e-45
200	0x00000004	6e-45
201	0x00000004	6e-45
202	0x00000004	6e-45
203	0x00000004	6e-45
204	0x00000004	6e-45
205	0x00000004	6e-45
206	0x00000004	6e-45
207	0x00000004	6e-45
208	0x00000004	6e-45
209	0x00000004	6e-45
210	0x00000004	6e-45
211	0x00000004	6e-45
212	0x00000004	6e-45
213	0x00000004	6e-45
214	0x00000004	6e-45
215	0x00000004	6e-45
216	0x00000004	6e-45
217	0x00000004	6e-45
218	0x00000004	6e-45
219	0x00000004	6e-45
220	0x00000004	6e-45
221	0x00000004	6e-45
222	0x00000004	6e-45
223	0x00000004	6e-45
224	0x00000004	6e-45
225	0x00000004	6e-45
226	0x00000004	6e-45
227	0x00000004	6e-45
228	0x00000004	6e-45
229	0x00000004	6e-45
230	0x00000004	6e-45
231	0x00000004	6e-45
232	0x00000004	6e-45
233	0x00000004	6e-45
234	0x00000004	6e-45
235	0x00000004	6e-45
236	0x00000004	6e-45
237	0x00000004	6e-45
238	0x00000004	6e-45
239	0x00000004	6e-45
240	0x00000004	6e-45
241	0x00000004	6e-45
242	0x00000004	6e-45
243	0x35edef8c	1.7727593e-06
244	0x35c147bc	1.4400498e-06
245	0x357e490c	9.472867e-07
246	0x35231562	6.075335e-07
247	0x350d6a9a	5.268172e-07
248	0x352b010c	6.370399e-07
249	0x35619d00	8.4047497e-07
250	0x358f3b0f	1.0671519e-06
251	0x35af140e	1.3044353e-06
252	0x35ed19b6	1.7665359e-06
253	0x35e70de8	1.7214888e-06
254	0x35c29be3	1.4499495e-06
255	0x359fef07	1.1915989e-06

exp_avg_sq f4 [64, 3, 9, 9]
0	0x000001f4	7e-43
1	0x000001f4	7e-43
2	0x000001f4	7e-43
3	0x000001f4	7e-43
4	0x000001f4	7e-43
5	0x000001f4	7e-43
6	0x000001f4	7e-43
7	0x000001f4	7e-43
8	0x000001f4	7e-43
9	0x000001f4	7e-43
10	0x000001f4	7e-43
11	0x000001f4	7e-43
12	0x000001f4	7e-43
13	0x000001f4	7e-43
14	0x000001f4	7e-43
15	0x000001f4	7e-43
16	0x000001f4	7e-43
17	0x000001f4	7e-43
18	0x000001f4	7e-43
19	0x000001f4	7e-43
20	0x000001f4	7e-43
21	0x000001f4	7e-43
22	0x000001f4	7e-43
23	0x000001f4	7e-43
24	0x000001f4	7e-43
25	0x000001f4	7e-43
26	0x000001f4	7e-43
27	0x000001f4	7e-43
28	0x000001f4	7e-43
29	0x000001f4	7e-43
30	0x000001f4	7e-43
31	0x000001f4	7e-43
32	0x000001f4	7e-43
33	0x000001f4	7e-43
34	0x000001f4	7e-43
35	0x000001f4	7e-43
36	0x000001f4	7e-43
37	0x000001f4	7e-43
38	0x000001f4	7e-43
39	0x000001f4	7e-43
40	0x000001f4	7e-43
41	0x000001f4	7e-43
42	0x000001f4	7e-43
43	0x000001f4	7e-43
44	0x000001f4	7e-43
45	0x000001f4	7e-43
46	0x000001f4	7e-43
47	0x000001f4	7e-43
48	0x000001f4	7e-43
49	0x000001f4	7e-43
50	0x000001f4	7e-43
51	0x000001f4	7e-43
52	0x000001f4	7e-43
53	0x000001f4	7e-43
54	0x000001f4	7e-43
55	0x000001f4	7e-43
56	0x000001f4	7e-43
57	0x000001f4	7e-43
58	0x000001f4	7e-43
59	0x000001f4	7e-43
60	0x000001f4	7e-43
61	0x000001f4	7e-43
62	0x000001f4	7e-43
63	0x000001f4	7e-43
64	0x000001f4	7e-43
65	0x000001f4	7e-43
66	0x000001f4	7e-43
67	0x000001f4	7e-43
68	0x000001f4	7e-43
69	0x000001f4	7e-43
70	0x000001f4	7e-43
71	0x000001f4	7e-43
72	0x000001f4	7e-43
73	0x000001f4	7e-43
74	0x000001f4	7e-43
75	0x000001f4	7e-43
76	0x000001f4	7e-43
77	0x000001f4	7e-43
78	0x000001f4	7e-43
79	0x000001f4	7e-43
80	0x000001f4	7e-43
81	0x000001f4	7e-43
82	0x000001f4	7e-43
83	0x000001f4	7e-43
84	0x000001f4	7e-43
85	0x000001f4	7e-43
86	0x000001f4	7e-43
87	0x000001f4	7e-43
88	0x000001f4	7e-43
89	0x000001f4	7e-43
90	0x000001f4	7e-43
91	0x000001f4	7e-43
92	0x000001f4	7e-43
93	0x000001f4	7e-43
94	0x000001f4	7e-43
95	0x000001f4	7e-43
96	0x000001f4	7e-43
97	0x000001f4	7e-43
98	0x000001f4	7e-43
99	0x000001f4	7e-43
100	0x000001f4	7e-43
101	0x000001f4	7e-43
102	0x000001f4	7e-43
103	0x000001f4	7e-43
104	0x000001f4	7e-43
105	0x000001f4	7e-43
106	0x000001f4	7e-43
107	0x000001f4	7e-43
108	0x000001f4	7e-43
109	0x000001f4	7e-43
110	0x000001f4	7e-43
111	0x000001f4	7e-43
112	0x000001f4	7e-43
113	0x000001f4	7e-43
114	0x000001f4	7e-43
115	0x000001f4	7e-43
116	0x000001f4	7e-43
117	0x000001f4	7e-43
118	0x000001f4	7e-43
119	0x000001f4	7e-43
120	0x000001f4	7e-43
121	0x000001f4	7e-43
122	0x000001f4	7e-43
123	0x000001f4	7e-43
124	0x000001f4	7e-43
125	0x000001f4	7e-43
126	0x000001f4	7e-43
127	0x000001f4	7e-43
128	0x000001f4	7e-43
129	0x000001f4	7e-43
130	0x000001f4	7e-43
131	0x000001f4	7e-43
132	0x000001f4	7e-43
133	0x000001f4	7e-43
134	0x000001f4	7e-43
135	0x000001f4	7e-43
136	0x000001f4	7e-43
137	0x000001f4	7e-43
138	0x000001f4	7e-43
139	0x000001f4	7e-43
140	0x000001f4	7e-43
141	0x000001f4	7e-43
142	0x000001f4	7e-43
143	0x000001f4	7e-43
144	0x000001f4	7e-43
145	0x000001f4	7e-43
146	0x000001f4	7e-43
147	0x000001f4	7e-43
148	0x000001f4	7e-43
149	0x000001f4	7e-43
150	0x000001f4	7e-43
151	0x000001f4	7e-43
152	0x000001f4	7e-43
153	0x000001f4	7e-43
154	0x000001f4	7e-43
155	0x000001f4	7e-43
156	0x000001f4	7e-43
157	0x000001f4	7e-43
158	0x000001f4	7e-43
159	0x000001f4	7e-43
160	0x000001f4	7e-43
161	0x000001f4	7e-43
162	0x000001f4	7e-43
163	0x000001f4	7e-43
164	0x000001f4	7e-43
165	0x000001f4	7e-43
166	0x000001f4	7e-43
167	0x000001f4	7e-43
168	0x000001f4	7e-43
169	0x000001f4	7e-43
170	0x000001f4	7e-43
171	0x000001f4	7e-43
172	0x000001f4	7e-43
173	0x000001f4	7e-43
174	0x000001f4	7e-43
175	0x000001f4	7e-43
176	0x000001f4	7e-43
177	0x000001f4	7e-43
178	0x000001f4	7e-43
179	0x000001f4	7e-43
180	0x000001f4	7e-43
181	0x000001f4	7e-43
182	0x000001f4	7e-43
183	0x000001f4	7e-43
184	0x000001f4	7e-43
185	0x000001f4	7e-43
186	0x000001f4	7e-43
187	0x000001f4	7e-43
188	0x000001f4	7e-43
189	0x000001f4	7e-43
190	0x000001f4	7e-43
191	0x000001f4	7e-43
192	0x000001f4	7e-43
193	0x000001f4	7e-43
194	0x000001f4	7e-43
195	0x000001f4	7e-43
196	0x000001f4	7e-43
197	0x000001f4	7e-43
198	0x000001f4	7e-43
199	0x000001f4	7e-43
200	0x000001f4	7e-43
201	0x000001f4	7e-43
202	0x000001f4	7e-43
203	0x000001f4	7e-43
204	0x000001f4	7e-43
205	0x000001f4	7e-43
206	0x000001f4	7e-43
207	0x000001f4	7e-43
208	0x000001f4	7e-43
209	0x000001f4	7e-43
210	0x000001f4	7e-43
211	0x000001f4	7e-43
212	0x000001f4	7e-43
213	0x000001f4	7e-43
214	0x000001f4	7e-43
215	0x000001f4	7e-43
216	0x000001f4	7e-43
217	0x000001f4	7e-43
218	0x000001f4	7e-43
219	0x000001f4	7e-43
220	0x000001f4	7e-43
221	0x000001f4	7e-43
222	0x000001f4	7e-43
223	0x000001f4	7e-43
224	0x000001f4	7e-43
225	0x000001f4	7e-43
226	0x000001f4	7e-43
227	0x000001f4	7e-43
228	0x000001f4	7e-43
229	0x000001f4	7e-43
230	0x000001f4	7e-43
231	0x000001f4	7e-43
232	0x000001f4	7e-43
233	0x000001f4	7e-43
234	0x000001f4	7e-43
235	0x000001f4	7e-43
236	0x000001f4	7e-43
237	0x000001f4	7e-43
238	0x000001f4	7e-43
239	0x000001f4	7e-43
240	0x000001f4	7e-43
241	0x000001f4	7e-43
242	0x000001f4	7e-43
243	0x3080c10c	9.368093e-10
244	0x308089cb	9.352389e-10
245	0x308069e0	9.343317e-10
246	0x307fd248	9.3067287e-10
247	0x307f30e1	9.283792e-10
248	0x3080059e	9.314822e-10
249	0x307f9d9a	9.2992425e-10
250	0x307d8ab7	9.223799e-10
251	0x307c41c2	9.1770513e-10
252	0x3080c057	9.367892e-10
253	0x3080b231	9.363871e-10
254	0x3080a8b2	9.361172e-10
255	0x30802294	9.323053e-10

exp_avg f4 [64]
0	0x00000004	6e-45
1	0x37079548	8.081384e-06
2	0x00000004	6e-45
3	0x367900ba	3.7104314e-06
4	0x359bcd6b	1.1608184e-06
5	0x36ed7231	7.076444e-06
6	0x00000004	6e-45
7	0x35ea127e	1.743974e-06
8	0x36240d56	2.4445667e-06
9	0xb4cbdb12	-3.797109e-07
10	0x00000004	6e-45
11	0x00000000	0.0
12	0x00000004	6e-45
13	0x00000004	6e-45
14	0x00000004	6e-45
15	0x00000004	6e-45
16	0x00000000	0.0
17	0x00000004	6e-45
18	0x3687b7d3	4.0447135e-06
19	0x00000000	0.0
20	0x00000000	0.0
21	0x35244980	6.120172e-07
22	0x00000000	0.0
23	0x35e333a3	1.6927846e-06
24	0x00000004	6e-45
25	0x00000004	6e-45
26	0xb7287001	-1.0039658e-05
27	0xb6886461	-4.0648015e-06
28	0xb63b9897	-2.795399e-06
29	0xb541acc8	-7.214953e-07
30	0x00000004	6e-45
31	0x00000000	0.0
32	0x00000004	6e-45
33	0xb6514bd8	-3.1187574e-06
34	0x00000004	6e-45
35	0x00000004	6e-45
36	0x00000004	6e-45
37	0x00000004	6e-45
38	0x365745bc	3.2078087e-06
39	0x363d97f5	2.8251645e-06
40	0x00000004	6e-45
41	0x00000004	6e-45
42	0x00000000	0.0
43	0x00000000	0.0
44	0x00000004	6e-45
45	0x00000004	6e-45
46	0xb455a616	-1.9897593e-07
47	0x00000004	6e-45
48	0x00000004	6e-45
49	0x00000000	0.0
50	0x00000004	6e-45
51	0x364f986f	3.0934132e-06
52	0x00000004	6e-45
53	0xb4a0810a	-2.989621e-07
54	0x34d770c6	4.0128924e-07
55	0x00000004	6e-45
56	0x36876055	4.034528e-06
57	0x361eafc5	2.3646146e-06
58	0x00000004	6e-45
59	0x00000004	6e-45
60	0x00000004	6e-45
61	0xb59910ce	-1.1404279e-06
62	0xb5e145c7	-1.6784114e-06
63	0x00000004	6e-45

exp_avg_sq f4 [64]
0	0x000001f4	7e-43
1	0x31781f12	3.6106411e-09
2	0x000001f4	7e-43
3	0x3069e522	8.5090524e-10
4	0x2f6ac9ac	2.1353824e-10
5	0x314908f3	2.9254437e-09
6	0x000001f4	7e-43
7	0x3046162d	7.2063494e-10
8	0x2ff77937	4.5015167e-10
9	0x30a7ec61	1.2218032e-09
10	0x000001f4	7e-43
11	0x00000000	0.0
12	0x000001f4	7e-43
13	0x000001f4	7e-43
14	0x000001f4	7e-43
15	0x000001f4	7e-43
16	0x00000000	0.0
17	0x000001f4	7e-43
18	0x30872d06	9.835339e-10
19	0x00000000	0.0
20	0x00000000	0.0
21	0x30693f19	8.4854573e-10
22	0x00000000	0.0
23	0x2f929a97	2.6667088e-10
24	0x000001f4	7e-43
25	0x000001f4	7e-43
26	0x313c1647	2.7370264e-09
27	0x309994fb	1.1174558e-09
28	0x303e583e	6.9246997e-10
29	0x31b2f424	5.2082374e-09
30	0x000001f4	7e-43
31	0x00000000	0.0
32	0x000001f4	7e-43
33	0x31ca4745	5.887076e-09
34	0x000001f4	7e-43
35	0x000001f4	7e-43
36	0x000001f4	7e-43
37	0x000001f4	7e-43
38	0x3039d0c3	6.7599276e-10
39	0x31104013	2.099118e-09
40	0x000001f4	7e-43
41	0x000001f4	7e-43
42	0x00000000	0.0
43	0x00000000	0.0
44	0x000001f4	7e-43
45	0x000001f4	7e-43
46	0x30850648	9.678809e-10
47	0x000001f4	7e-43
48	0x000001f4	7e-43
49	0x00000000	0.0
50	0x000001f4	7e-43
51	0x3029a68a	6.171851e-10
52	0x000001f4	7e-43
53	0x30a9c118	1.2351249e-09
54	0x3046e03b	7.235063e-10
55	0x000001f4	7e-43
56	0x30eadcc5	1.7088487e-09
57	0x2fd8231b	3.9315115e-10
58	0x000001f4	7e-43
59	0x000001f4	7e-43
60	0x000001f4	7e-43
61	0x2fd2d508	3.8350145e-10
62	0x315618bb	3.1155156e-09
63	0x000001f4	7e-43

exp_avg f4 [32, 64, 1, 1]
0	0x00000000	0.0
1	0x36110bd4	2.1613569e-06
2	0x00000000	0.0
3	0x35429b13	7.2496294e-07
4	0x36c3c6ad	5.8345818e-06
5	0xb58d2de2	-1.0518672e-06
6	0x00000000	0.0
7	0xb650f5b3	-3.113743e-06
8	0x36881e94	4.0566756e-06
9	0x3709bc44	8.20967e-06
10	0x00000000	0.0
11	0x00000000	0.0
12	0x00000000	0.0
13	0x00000000	0.0
14	0x00000000	0.0
15	0x00000000	0.0
16	0x00000000	0.0
17	0x00000004	6e-45
18	0x35d69b00	1.5989353e-06
19	0x00000000	0.0
20	0x00000000	0.0
21	0x36c58d73	5.8875244e-06
22	0x00000000	0.0
23	0x36b45d65	5.3752906e-06
24	0x00000000	0.0
25	0x00000000	0.0
26	0xb688bde0	-4.07522e-06
27	0x37d7c6f1	2.5722637e-05
28	0x37a9452e	2.0178584e-05
29	0x3679d0cf	3.7225434e-06
30	0x00000000	0.0
31	0x00000000	0.0
32	0x00000000	0.0
33	0xb5a1bab5	-1.2049774e-06
34	0x00000000	0.0
35	0x00000000	0.0
36	0x00000000	0.0
37	0x00000000	0.0
38	0x35cce5e0	1.5266087e-06
39	0xb6239307	-2.4374474e-06
40	0x00000000	0.0
41	0x00000000	0.0
42	0x00000000	0.0
43	0x00000000	0.0
44	0x00000000	0.0
45	0x00000000	0.0
46	0x37085219	8.1253465e-06
47	0x00000000	0.0
48	0x00000000	0.0
49	0x00000000	0.0
50	0x00000000	0.0
51	0x36995098	4.5691377e-06
52	0x00000000	0.0
53	0x3707e51b	8.09997e-06
54	0x36e26f24	6.7482633e-06
55	0x00000000	0.0
56	0xb4d4cc71	-3.9636828e-07
57	0x36bd61cd	5.6440244e-06
58	0x00000000	0.0
59	0x00000000	0.0
60	0x00000000	0.0
61	0xb5e55d55	-1.7088993e-06
62	0x3672f1e3	3.6201607e-06
63	0x00000000	0.0
64	0x00000000	0.0
65	0x37f08afd	2.8674951e-05
66	0x00000000	0.0
67	0x37a97dcd	2.020495e-05
68	0x37efea29	2.860006e-05
69	0x376f9709	1.4280676e-05
70	0x00000000	0.0
71	0x36958590	4.4560948e-06
72	0x37eb892c	2.8078059e-05
73	0x37af0342	2.0863143e-05
74	0x00000000	0.0
75	0x00000000	0.0
76	0x00000000	0.0
77	0x00000000	0.0
78	0x00000000	0.0
79	0x00000000	0.0
80	0x00000000	0.0
81	0x00000004	6e-45
82	0x37c6862e	2.3665922e-05
83	0x00000000	0.0
84	0x00000000	0.0
85	0x3797fabb	1.8117358e-05
86	0x00000000	0.0
87	0x37fdb2fd	3.0243298e-05
88	0x00000000	0.0
89	0x00000000	0.0
90	0x37473569	1.187376e-05
91	0x388b528e	6.6434135e-05
92	0x385fe91e	5.338445e-05
93	0x371f913a	9.510952e-06
94	0x00000000	0.0
95	0x00000000	0.0
96	0x00000000	0.0
97	0x36415918	2.88111e-06
98	0x00000000	0.0
99	0x00000000	0.0
100	0x00000000	0.0
101	0x00000000	0.0
102	0x37b85c73	2.197756e-05
103	0x361ef754	2.3687799e-06
104	0x00000000	0.0
105	0x00000000	0.0
106	0x00000000	0.0
107	0x00000000	0.0
108	0x00000000	0.0
109	0x00000000	0.0
110	0x37b91bee	2.2066724e-05
111	0x00000000	0.0
112	0x00000000	0.0
113	0x00000000	0.0
114	0x00000000	0.0
115	0x38028d5d	3.112607e-05
116	0x00000000	0.0
117	0x37acd679	2.060387e-05
118	0x37a69772	1.9859264e-05
119	0x00000000	0.0
120	0x3723cc81	9.763172e-06
121	0x3809a380	3.2815617e-05
122	0x00000000	0.0
123	0x00000000	0.0
124	0x00000000	0.0
125	0x3627abef	2.4985018e-06
126	0x377e270f	1.5148674e-05
127	0x00000000	0.0
128	0x00000000	0.0
129	0x00000000	0.0
130	0x00000000	0.0
131	0x00000000	0.0
132	0x00000000	0.0
133	0x00000000	0.0
134	0x00000000	0.0
135	0x00000000	0.0
136	0x00000000	0.0
137	0x00000000	0.0
138	0x00000000	0.0
139	0x00000000	0.0
140	0x00000000	0.0
141	0x00000000	0.0
142	0x00000000	0.0
143	0x00000000	0.0
144	0x00000000	0.0
145	0x00000000	0.0
146	0x00000000	0.0
147	0x00000000	0.0
148	0x00000000	0.0
149	0x00000000	0.0
150	0x00000000	0.0
151	0x00000000	0.0
152	0x00000000	0.0
153	0x00000000	0.0
154	0x00000000	0.0
155	0x00000000	0.0
156	0x00000000	0.0
157	0x00000000	0.0
158	0x00000000	0.0
159	0x00000000	0.0
160	0x00000000	0.0
161	0x00000000	0.0
162	0x00000000	0.0
163	0x00000000	0.0
164	0x00000000	0.0
165	0x00000000	0.0
166	0x00000000	0.0
167	0x00000000	0.0
168	0x00000000	0.0
169	0x00000000	0.0
170	0x00000000	0.0
171	0x00000000	0.0
172	0x00000000	0.0
173	0x00000000	0.0
174	0x00000000	0.0
175	0x00000000	0.0
176	0x00000000	0.0
177	0x00000000	0.0
178	0x00000000	0.0
179	0x00000000	0.0
180	0x00000000	0.0
181	0x00000000	0.0
182	0x00000000	0.0
183	0x00000000	0.0
184	0x00000000	0.0
185	0x00000000	0.0
186	0x00000000	0.0
187	0x00000000	0.0
188	0x00000000	0.0
189	0x00000000	0.0
190	0x00000000	0.0
191	0x00000000	0.0
192	0x00000004	6e-45
193	0xb791fd20	-1.7403217e-05
194	0x00000004	6e-45
195	0xb73053ad	-1.05099e-05
196	0xb77daaea	-1.5119769e-05
197	0xb711c16d	-8.687709e-06
198	0x00000004	6e-45
199	0xb6822226	-3.8782773e-06
200	0xb77530c9	-1.4614497e-05
201	0xb747a8d8	-1.1900636e-05
202	0x00000000	0.0
203	0x00000000	0.0
204	0x00000004	6e-45
205	0x00000004	6e-45
206	0x00000000	0.0
207	0x00000004	6e-45
208	0x00000000	0.0
209	0x00000004	6e-45
210	0xb74d8da3	-1.225193e-05
211	0x00000000	0.0
212	0x00000000	0.0
213	0xb728113c	-1.0017593e-05
214	0x00000000	0.0
215	0xb7858536	-1.5916867e-05
216	0x00000000	0.0
217	0x00000004	6e-45
218	0xb68c1143	-4.1743347e-06
219	0xb8146a7e	-3.538513e-05
220	0xb7f0ea64	-2.8719376e-05
221	0xb6bc2f35	-5.6083322e-06
222	0x00000004	6e-45
223	0x00000000	0.0
224	0x00000004	6e-45
225	0xb61f9d6e	-2.3784482e-06
226	0x00000004	6e-45
227	0x80000004	-6e-45
228	0x00000004	6e-45
229	0x00000000	0.0
230	0xb7408e87	-1.14772765e-05
231	0xb5857ba0	-9.945252e-07
232	0x00000004	6e-45
233	0x80000004	-6e-45
234	0x00000000	0.0
235	0x00000000	0.0
236	0x00000004	6e-45
237	0x00000000	0.0
238	0xb757d4bd	-1.2864531e-05
239	0x00000004	6e-45
240	0x00000004	6e-45
241	0x00000000	0.0
242	0x00000004	6e-45
243	0xb7876e1a	-1.6144524e-05
244	0x00000004	6e-45
245	0xb744f771	-1.1740122e-05
246	0xb7396d04	-1.10522415e-05
247	0x00000000	0.0
248	0xb6e91317	-6.9461635e-06
249	0xb78f7cd1	-1.710505e-05
250	0x00000004	6e-45
251	0x00000004	6e-45
252	0x00000004	6e-45
253	0xb4e94bb1	-4.3454705e-07
254	0xb7092b60	-8.175935e-06
255	0x00000000	0.0

exp_avg_sq f4 [32, 64, 1, 1]
0	0x00000000	0.0
1	0x33c2259b	9.0406694e-08
2	0x00000000	0.0
3	0x331635ec	3.4973638e-08
4	0x3313acfd	3.4383437e-08
5	0x32ec6a47	2.7522345e-08
6	0x00000000	0.0
7	0x329779b3	1.7634056e-08
8	0x3341af97	4.5096012e-08
9	0x3213ec90	8.610314e-09
10	0x00000000	0.0
11	0x00000000	0.0
12	0x00000000	0.0
13	0x00000000	0.0
14	0x00000000	0.0
15	0x00000000	0.0
16	0x00000000	0.0
17	0x000001f4	7e-43
18	0x33328dcd	4.157282e-08
19	0x00000000	0.0
20	0x00000000	0.0
21	0x31fa986c	7.293286e-09
22	0x00000000	0.0
23	0x33455f39	4.595424e-08
24	0x00000000	0.0
25	0x00000000	0.0
26	0x315f5969	3.2501595e-09
27	0x33b1e5fd	8.2840394e-08
28	0x33797313	5.807949e-08
29	0x31235f43	2.3773772e-09
30	0x00000000	0.0
31	0x00000000	0.0
32	0x00000000	0.0
33	0x3089d4de	1.0028562e-09
34	0x00000000	0.0
35	0x00000000	0.0
36	0x00000000	0.0
37	0x00000000	0.0
38	0x3322897a	3.78436e-08
39	0x31216511	2.3486033e-09
40	0x00000000	0.0
41	0x00000000	0.0
42	0x00000000	0.0
43	0x00000000	0.0
44	0x00000000	0.0
45	0x00000000	0.0
46	0x32756932	1.4284796e-08
47	0x00000000	0.0
48	0x00000000	0.0
49	0x00000000	0.0
50	0x00000000	0.0
51	0x3360578d	5.223369e-08
52	0x00000000	0.0
53	0x320ec478	8.31016e-09
54	0x320cafab	8.189015e-09
55	0x00000000	0.0
56	0x321f5037	9.273257e-09
57	0x3360f12b	5.2373405e-08
58	0x00000000	0.0
59	0x00000000	0.0
60	0x00000000	0.0
61	0x310faea6	2.0908515e-09
62	0x32747304	1.4228821e-08
63	0x00000000	0.0
64	0x00000000	0.0
65	0x3469ab12	2.1762051e-07
66	0x00000000	0.0
67	0x33b3ac1d	8.366644e-08
68	0x33b08818	8.220394e-08
69	0x338e48a7	6.625606e-08
70	0x00000000	0.0
71	0x333614d9	4.2394138e-08
72	0x33e780a9	1.0780179e-07
73	0x32b1c1f6	2.0693715e-08
74	0x00000000	0.0
75	0x00000000	0.0
76	0x00000000	0.0
77	0x00000000	0.0
78	0x00000000	0.0
79	0x00000000	0.0
80	0x00000000	0.0
81	0x000001f4	7e-43
82	0x33d58228	9.942261e-08
83	0x00000000	0.0
84	0x00000000	0.0
85	0x329612f1	1.7470912e-08
86	0x00000000	0.0
87	0x33ebe725	1.0985085e-07
88	0x00000000	0.0
89	0x00000000	0.0
90	0x32084509	7.931939e-09
91	0x3454d92b	1.9823044e-07
92	0x3415427c	1.3900893e-07
93	0x31c475c4	5.717739e-09
94	0x00000000	0.0
95	0x00000000	0.0
96	0x00000000	0.0
97	0x31243da4	2.390018e-09
98	0x00000000	0.0
99	0x00000000	0.0
100	0x00000000	0.0
101	0x00000000	0.0
102	0x33c25f02	9.051111e-08
103	0x31c1c301	5.6392087e-09
104	0x00000000	0.0
105	0x00000000	0.0
106	0x00000000	0.0
107	0x00000000	0.0
108	0x00000000	0.0
109	0x00000000	0.0
110	0x3313a148	3.437279e-08
111	0x00000000	0.0
112	0x00000000	0.0
113	0x00000000	0.0
114	0x00000000	0.0
115	0x34060da9	1.2484692e-07
116	0x00000000	0.0
117	0x32ab8d51	1.9971283e-08
118	0x32a89af0	1.9628231e-08
119	0x00000000	0.0
120	0x32bffac7	2.2349367e-08
121	0x340669b6	1.251818e-07
122	0x00000000	0.0
123	0x00000000	0.0
124	0x00000000	0.0
125	0x31a9289b	4.9231637e-09
126	0x33126d51	3.4092697e-08
127	0x00000000	0.0
128	0x00000000	0.0
129	0x00000000	0.0
130	0x00000000	0.0
131	0x00000000	0.0
132	0x00000000	0.0
133	0x00000000	0.0
134	0x00000000	0.0
135	0x00000000	0.0
136	0x00000000	0.0
137	0x00000000	0.0
138	0x00000000	0.0
139	0x00000000	0.0
140	0x00000000	0.0
141	0x00000000	0.0
142	0x00000000	0.0
143	0x00000000	0.0
144	0x00000000	0.0
145	0x00000000	0.0
146	0x00000000	0.0
147	0x00000000	0.0
148	0x00000000	0.0
149	0x00000000	0.0
150	0x00000000	0.0
151	0x00000000	0.0
152	0x00000000	0.0
153	0x00000000	0.0
154	0x00000000	0.0
155	0x00000000	0.0
156	0x00000000	0.0
157	0x00000000	0.0
158	0x00000000	0.0
159	0x00000000	0.0
160	0x00000000	0.0
161	0x00000000	0.0
162	0x00000000	0.0
163	0x00000000	0.0
164	0x00000000	0.0
165	0x00000000	0.0
166	0x00000000	0.0
167	0x00000000	0.0
168	0x00000000	0.0
169	0x00000000	0.0
170	0x00000000	0.0
171	0x00000000	0.0
172	0x00000000	0.0
173	0x00000000	0.0
174	0x00000000	0.0
175	0x00000000	0.0
176	0x00000000	0.0
177	0x00000000	0.0
178	0x00000000	0.0
179	0x00000000	0.0
180	0x00000000	0.0
181	0x00000000	0.0
182	0x00000000	0.0
183	0x00000000	0.0
184	0x00000000	0.0
185	0x00000000	0.0
186	0x00000000	0.0
187	0x00000000	0.0
188	0x00000000	0.0
189	0x00000000	0.0
190	0x00000000	0.0
191	0x00000000	0.0
192	0x000001f4	7e-43
193	0x33c6018a	9.2203734e-08
194	0x000001f4	7e-43
195	0x3316f9b8	3.5151714e-08
196	0x3314395c	3.4511103e-08
197	0x32f0bee0	2.8026477e-08
198	0x000001f4	7e-43
199	0x329a252c	1.7944863e-08
200	0x33425d7e	4.5254176e-08
201	0x3216830b	8.760945e-09
202	0x00000000	0.0
203	0x00000000	0.0
204	0x000001f4	7e-43
205	0x000001f4	7e-43
206	0x00000000	0.0
207	0x000001f4	7e-43
208	0x00000000	0.0
209	0x000001f4	7e-43
210	0x33334c88	4.174629e-08
211	0x00000000	0.0
212	0x00000000	0.0
213	0x31fce55e	7.3602413e-09
214	0x00000000	0.0
215	0x33460f94	4.6114636e-08
216	0x00000000	0.0
217	0x000001f4	7e-43
218	0x31630c78	3.3039935e-09
219	0x33b2bf6b	8.3235896e-08
220	0x337ae51b	5.841603e-08
221	0x3126ff38	2.4301254e-09
222	0x000001f4	7e-43
223	0x00000000	0.0
224	0x000001f4	7e-43
225	0x3083f326	9.600611e-10
226	0x000001f4	7e-43
227	0x000001f4	7e-43
228	0x000001f4	7e-43
229	0x00000000	0.0
230	0x332349f6	3.8018662e-08
231	0x3122f15a	2.3711295e-09
232	0x000001f4	7e-43
233	0x000001f4	7e-43
234	0x00000000	0.0
235	0x00000000	0.0
236	0x000001f4	7e-43
237	0x00000000	0.0
238	0x327a8c91	1.4583876e-08
239	0x000001f4	7e-43
240	0x000001f4	7e-43
241	0x00000000	0.0
242	0x000001f4	7e-43
243	0x336103c2	5.2390313e-08
244	0x000001f4	7e-43
245	0x3211437c	8.455455e-09
246	0x320e354b	8.277605e-09
247	0x00000000	0.0
248	0x3221e305	9.423052e-09
249	0x3361a089	5.25329e-08
250	0x000001f4	7e-43
251	0x000001f4	7e-43
252	0x000001f4	7e-43
253	0x310dba04	2.0623938e-09
254	0x3276e976	1.43721675e-08
255	0x00000000	0.0

exp_avg f4 [32]
0	0x3768ba60	1.3871671e-05
1	0x3824e399	3.9312614e-05
2	0x00000000	0.0
3	0xb7b032be	-2.1004464e-05
4	0x34e0fbb8	4.19064e-07
5	0x00000000	0.0
6	0x3663b5e0	3.39315e-06
7	0x00000000	0.0
8	0x00000004	6e-45
9	0x361b07cb	2.3101336e-06
10	0xb8313bb3	-4.2255688e-05
11	0xb52aa68b	-6.3572287e-07
12	0xb7d469dc	-2.5321664e-05
13	0x35ba1d1c	1.3866552e-06
14	0x36185083	2.269663e-06
15	0x36408bae	2.8691534e-06
16	0x3872c8a0	5.7884143e-05
17	0x368f65e8	4.2735956e-06
18	0x00000004	6e-45
19	0x36cd4dfc	6.1185547e-06
20	0x00000004	6e-45
21	0x362c001d	2.5630063e-06
22	0x3775c701	1.4649472e-05
23	0x367fca7b	3.811582e-06
24	0x00000004	6e-45
25	0x00000004	6e-45
26	0x366d5325	3.5364149e-06
27	0x369b0e13	4.6209984e-06
28	0x35fffc75	1.9072455e-06
29	0x36b6334a	5.4299935e-06
30	0x00000004	6e-45
31	0x00000000	0.0
