checkpoint/SRCNN935/SRCNN-935.pt (torch, 147927 bytes, 6 tensors)

patch_extraction.weight f4 [64, 3, 9, 9]
0	0xba1fb843	-0.0006092826
1	0x3a4a19a1	0.00077095075
2	0xba9fe633	-0.0012199342
3	0x39843bdb	0.00025221598
4	0x39ec444d	0.00045064316
5	0xba554336	-0.00081353204
6	0x3939bb88	0.00017712836
7	0x3a90aa27	0.0011037037
8	0xba02ce20	-0.00049898215
9	0x3a971a2d	0.0011528187
10	0xba37e912	-0.0007015626
11	0x3a0bd9e4	0.00053348974
12	0x3abf6386	0.0014601804
13	0xbac7a482	-0.0015231522
14	0xbb05fb60	-0.002044402
15	0x3a9bf471	0.0011898411
16	0x39999eb2	0.0002930067
17	0xba7546fb	-0.0009356585
18	0xbabf4761	-0.0014593416
19	0x3a1079e1	0.00055113254
20	0x3af90cec	0.0019001043
21	0xba663fc0	-0.0008783303
22	0xba25b949	-0.000632186
23	0x3ab33497	0.0013672289
24	0x3a773de4	0.00094315247
25	0xb9e48ec6	-0.00043593923
26	0xba9b87d0	-0.0011866037
27	0x3ae4baff	0.0017450749
28	0xb929bc80	-0.00016187318
29	0xb96e4ba6	-0.0002272563
30	0x3a453c36	0.0007523926
31	0x3a3000f8	0.00067140115
32	0x386c5290	5.6343677e-05
33	0x39c45b0b	0.00037451866
34	0x39dffe98	0.00042723562
35	0x3a879f65	0.0010347186
36	0xba8fc217	-0.0010967877
37	0xbaa5fb56	-0.0012663405
38	0x38d4ce7e	0.0001014741
39	0x3a843f21	0.0010089615
40	0xba4fa3c8	-0.00079208286
41	0x39a23dbf	0.00030945052
42	0x3a78dc1c	0.0009493248
43	0xb9d9bf52	-0.0004153201
44	0xba28a8c7	-0.0006433841
45	0xbaaf279f	-0.0013363248
46	0x38253b65	3.939438e-05
47	0x3938ce76	0.0001762452
48	0x3a5d7976	0.000844858
49	0xba5019df	-0.00079384254
50	0x39dcd148	0.00042117597
51	0x3aeee274	0.0018225447
52	0xbad6164e	-0.0016333552
53	0xb9b3ac2e	-0.00034269824
54	0x38b1d4e1	8.4796695e-05
55	0xba9f7ab0	-0.0012167301
56	0xba381faa	-0.0007023761
57	0x3995afd8	0.00028550508
58	0x3a0a47f7	0.0005275006
59	0xb84523be	-4.7001748e-05
60	0xba2a12f2	-0.00064878084
61	0x3a840e9e	0.0010075157
62	0xba0e0ea8	-0.0005419054
63	0x38dcdb27	0.00010531238
64	0xba5a12c9	-0.0008318839
65	0x3a48449b	0.00076396175
66	0xba4c2053	-0.0007786799
67	0xba62353e	-0.00086291495
68	0x3a97a4f3	0.0011569544
69	0x3b3225b4	0.0027183117
70	0xba917031	-0.0011096058
71	0x3a06fe89	0.0005149623
72	0x3aa4e358	0.0012579961
73	0x3a923c8d	0.0011156962
74	0xb9e9a933	-0.00044567286
75	0xb875e521	-5.8625945e-05
76	0xbab2b7c4	-0.0013635089
77	0xb9ded709	-0.00042503353
78	0xbb086e08	-0.0020817537
79	0x3b266ebf	0.00253956
80	0x3a4034bd	0.00073320774
81	0xb87a2a6b	-5.964415e-05
82	0x39b30658	0.00034146267
83	0xb8895c19	-6.5498236e-05
84	0x3aab94a1	0.001309056
85	0x3a2531b1	0.0006301655
86	0xbb008c57	-0.00196149
87	0x3a17d2d3	0.0005791608
88	0xbabb0b48	-0.001427033
89	0xbae2515b	-0.0017266677
90	0x3a997aad	0.0011709534
91	0x39fddbe2	0.00048419746
92	0xbaf4291b	-0.0018627973
93	0x3837e743	4.384598e-05
94	0x3a8020ae	0.0009775364
95	0x3a17a727	0.00057851005
96	0xba94d429	-0.0011354733
97	0xbaae17f2	-0.0013282283
98	0xba210f78	-0.00061439676
99	0x36ed7a58	7.077393e-06
100	0x39bd08c0	0.00036055408
101	0xba007536	-0.0004900278
102	0x399e897b	0.0003023854
103	0x3abeb264	0.0014549014
104	0xbb09c71e	-0.0021023224
105	0xba9173e8	-0.0011097165
106	0xba7e424c	-0.000969921
107	0xba8faaa0	-0.0010960884
108	0xb978f788	-0.00023743336
109	0xbad274c0	-0.0016056523
110	0x3b0794fc	0.0020688167
111	0xba1cadb8	-0.0005976814
112	0x3a24a0e4	0.0006280078
113	0xba866f99	-0.0010256647
114	0x3aff15df	0.0019461474
115	0x3a1119a8	0.0005535134
116	0xbaaccf92	-0.0013184419
117	0x3a75cf5d	0.0009376908
118	0xb9a38130	-0.00031186035
119	0x3ada3781	0.0016648622
120	0x39998acc	0.00029285846
121	0xb986296b	-0.0002558933
122	0x3a648aa3	0.0008718168
123	0xb92e440c	-0.00016619283
124	0x393b7a02	0.00017879161
125	0x3a0cdd7b	0.00053735793
126	0xba36f131	-0.00069786893
127	0xbaa11603	-0.0012289885
128	0xba8a334e	-0.0010543854
129	0x3a004f3e	0.00048946205
130	0x3a078ffe	0.0005171298
131	0x3a85f163	0.0010219034
132	0xb868410f	-5.53737e-05
133	0x3a550c31	0.0008127122
134	0x384736e3	4.7496414e-05
135	0xb8dbe8ad	-0.00010486073
136	0x3aa9b60c	0.0012947931
137	0xbaa0388c	-0.0012223884
138	0x3a9e1e79	0.0012063525
139	0xba1dc4fd	-0.0006018428
140	0x3a797785	0.0009516406
141	0xbaeb35b5	-0.0017945083
142	0xb9e6bd78	-0.00044010184
143	0xba53c3f8	-0.0008078213
144	0x39dcdfbd	0.00042128368
145	0xbac59691	-0.001507478
146	0xba446b9e	-0.0007492843
147	0x399f42b8	0.00030376553
148	0xbae7e797	-0.001769292
149	0x3a858ed7	0.0010189664
150	0xb94c7e0f	-0.00019501917
151	0x3aa505ec	0.0012590266
152	0xb8bce83e	-9.007797e-05
153	0x3889da36	6.573314e-05
154	0x3a5312d5	0.00080518174
155	0x3981f812	0.00024789624
156	0xba89c7ee	-0.0010511854
157	0x3a81e195	0.0009909148
158	0x3a06282c	0.00051176804
159	0x3a8b5251	0.0010629391
160	0x3b08d621	0.0020879584
161	0xba5c86e4	-0.0008412434
162	0x3a8ef96f	0.0010908077
163	0xba0b302d	-0.0005309608
164	0x3aa9ec58	0.0012964113
165	0xba5c6605	-0.0008407536
166	0xbb32d8d8	-0.0027289893
167	0x3a318e19	0.00067731884
168	0xba802621	-0.0009776988
169	0xba9a69cd	-0.0011780799
170	0xb983e047	-0.00025153367
171	0x3aaf98ca	0.0013396975
172	0xbacd8f0b	-0.0015682889
173	0xba136474	-0.00056225737
174	0x38bcef44	9.009105e-05
175	0xba7659ff	-0.0009397566
176	0x3a3608c5	0.0006944056
177	0xb83da2cb	-4.5212724e-05
178	0xbaed2391	-0.0018092265
179	0x3894183d	7.061705e-05
180	0xb82a036e	-4.0534353e-05
181	0xb9d6b702	-0.00040953612
182	0xba25030f	-0.0006294706
183	0xb9cc64fc	-0.0003898515
184	0xb9a3be7f	-0.00031231713
185	0x3a9f914c	0.0012174039
186	0x3a942c74	0.0011304752
187	0xbadff590	-0.0017086733
188	0xba96254a	-0.0011455205
189	0x3acfc6c8	0.0015852088
190	0xb93c24a3	-0.00017942725
191	0xba3d7fb6	-0.0007228808
192	0x37d613d1	2.5520016e-05
193	0xbaaa4f9e	-0.0012993698
194	0xbaefac20	-0.001828555
195	0xba572cf3	-0.0008208297
196	0xba83c45e	-0.0010053029
197	0xb9cc140d	-0.0003892485
198	0x3a6a9a04	0.0008949342
199	0x3a7cc58a	0.0009642473
200	0xbad744d0	-0.0016423706
201	0xb89030c6	-6.87554e-05
202	0x3a8ca617	0.0010730651
203	0x39c15d32	0.00036881265
204	0x3896c818	7.189828e-05
205	0xb9e6eb6e	-0.00044044427
206	0xbb006397	-0.001959061
207	0xb96978ac	-0.00022265565
208	0x399e4e57	0.00030194476
209	0xb96764c6	-0.00022067418
210	0x3a0541e1	0.0005083364
211	0xba77f437	-0.0009458693
212	0x397940a9	0.00023770578
213	0xb87b0984	-5.9851925e-05
214	0x3ab0bf98	0.0013484834
215	0xb989181a	-0.00026148633
216	0xb9ccd305	-0.00039067134
217	0xba811a4a	-0.0009849754
218	0x398b6f62	0.00026595133
219	0xbaa2ba87	-0.0012415209
220	0x3a01296d	0.00049271324
221	0xbade5f84	-0.0016965722
222	0xba139342	-0.0005629548
223	0xba6fbbf3	-0.0009145133
224	0x39bec236	0.00036384322
225	0xbae00e84	-0.001709417
226	0xbabbc0af	-0.0014324392
227	0x3a7b1338	0.0009577754
228	0xba422801	-0.0007406474
229	0x39e03c13	0.00042769368
230	0x3a574cb8	0.0008213031
231	0x38b7703c	8.747025e-05
232	0x39d87d92	0.00041292288
233	0xb8365c78	-4.34783e-05
234	0xb8e19b52	-0.00010757767
235	0xbaa26fcd	-0.0012392938
236	0xb9542001	-0.00020229818
237	0x39bca778	0.00035982928
238	0x3a218384	0.000616126
239	0xbaa72439	-0.0012751884
240	0x3a9d1d8e	0.0011986957
241	0x39b1f2b1	0.0003394089
242	0x3a425cf6	0.0007414365
243	0xbbb10d56	-0.005403201
244	0xba70df79	-0.00091885735
245	0x3bf81d1b	0.007571829
246	0x3c1baf0e	0.0095021855
247	0x3c123d99	0.008925819
248	0x3c1700a9	0.009216466
249	0xba9bf2ee	-0.001189796
250	0xbbe18645	-0.0068824613
251	0xbc323ae0	-0.010878295
252	0x3b7d38b0	0.0038638525
253	0x3c31badd	0.010847774
254	0x3b0d5476	0.0021565235
255	0xbc93ffc1	-0.018066289

patch_extraction.bias f4 [64]
0	0x00000000	0.0
1	0xbcc11505	-0.023569593
2	0x3c457c25	0.012053524
3	0x3cb5f365	0.022210786
4	0xbc5096c6	-0.01273126
5	0x00000000	0.0
6	0xb92f255d	-0.0001670322
7	0xbc440f69	-0.011966565
8	0xb926d7db	-0.00015911406
9	0xbba3b2dc	-0.004995687
10	0xbb6649b8	-0.0035139155
11	0x3ca89d38	0.02058278
12	0xb8864050	-6.401597e-05
13	0x3c2b7d0e	0.010466827
14	0xb926104c	-0.00015837065
15	0xb908e5dc	-0.000130556
16	0xbcff23bf	-0.031144975
17	0x3cc0c719	0.023532437
18	0x00000000	0.0
19	0x3c938940	0.018009782
20	0x3b4f578d	0.0031637878
21	0x00000000	0.0
22	0x00000000	0.0
23	0x3cae66ac	0.021289192
24	0xb925dd2e	-0.00015818022
25	0xbdd1499f	-0.1021912
26	0x3cb9ad12	0.022665534
27	0xbdd7867d	-0.105236985
28	0xb8c138f2	-9.213564e-05
29	0xb909a02e	-0.0001312501
30	0xb9344124	-0.00017190404
31	0xbd9f68e4	-0.07783678
32	0x3b52ce07	0.003216626
33	0xbb220126	-0.0024719923
34	0xbd41b675	-0.047293145
35	0xb8f1b921	-0.000115262585
36	0xbcc1fd8d	-0.023680473
37	0xb8fb255f	-0.000119755736
38	0xb861c660	-5.382893e-05
39	0xbc8c3617	-0.017115636
40	0x00000000	0.0
41	0xb905dae9	-0.00012765419
42	0xbb4de056	-0.0031414232
43	0xb92a9906	-0.00016269469
44	0xb9440f93	-0.00018697818
45	0xb7c4ce9d	-2.3461233e-05
46	0xb9390150	-0.00017643464
47	0x3d4e283f	0.05033135
48	0xb9313aac	-0.00016901892
49	0xbe062843	-0.13101296
50	0xb8f90597	-0.000118742864
51	0xbbf4e16f	-0.007473163
52	0xb940f377	-0.00018401245
53	0x00000000	0.0
54	0x00000000	0.0
55	0xbb9c9041	-0.0047779386
56	0x3c2636ad	0.010144872
57	0x3ba46ed2	0.0050180936
58	0xbd328a4e	-0.04358893
59	0xbce0bedf	-0.027434764
60	0xb8faaa10	-0.000119526056
61	0xb92d46e9	-0.00016524982
62	0xbd9daf45	-0.07699446
63	0xbd6846f7	-0.056708302

nonlinear_map.weight f4 [32, 64, 3, 3]
0	0xba927d6e	-0.0011176297
1	0x399acf39	0.00029527562
2	0xba51dc02	-0.0008005501
3	0x3a48bf99	0.0007657945
4	0x3976452e	0.0002348616
5	0x3a616c96	0.00085992494
6	0xb8786428	-5.9221085e-05
7	0x39af783b	0.0003346818
8	0xb68261cb	-3.8856865e-06
9	0xbb24fec5	-0.0025176269
10	0xb99d6f47	-0.00030028282
11	0x39e283b6	0.0004320421
12	0x39e934bb	0.0004448051
13	0x3aa41aeb	0.0012520229
14	0xba2041f8	-0.0006113346
15	0xb78a4224	-1.6481681e-05
16	0xb9840ad9	-0.00025185084
17	0x3a5707c5	0.0008202757
18	0x34290deb	1.5744415e-07
19	0x39f76174	0.0004718412
20	0x39e1287a	0.00042945502
21	0xbafdb797	-0.0019357082
22	0xb98055f6	-0.00024478108
23	0x399921d1	0.0002920763
24	0x3a5d1699	0.0008433848
25	0xb9f03dff	-0.00045822558
26	0xba5397e0	-0.00080716424
27	0xb8625f4e	-5.397136e-05
28	0xbb3fa9b4	-0.0029245438
29	0xb9f49df3	-0.00046656988
30	0xb9592b01	-0.00020710753
31	0xb8621800	-5.390495e-05
32	0x3a2e0cc5	0.0006639476
33	0x38840253	6.2946834e-05
34	0x3af69f30	0.0018815752
35	0x3a4d6ffe	0.00078368175
36	0xba47f33b	-0.0007627492
37	0xba87512f	-0.0010323877
38	0x3a97396d	0.00115375
39	0x3a00994f	0.0004905657
40	0xba82eb49	-0.0009988333
41	0x391e5edd	0.00015103394
42	0xba60650b	-0.00085599785
43	0xb8200753	-3.8153794e-05
44	0xb9198023	-0.00014638952
45	0x3a365c74	0.00069565256
46	0x372bff00	1.0251766e-05
47	0x39e9e600	0.00044612586
48	0xba11f2c7	-0.00055674877
49	0x39669b0d	0.0002199227
50	0x397cb89a	0.00024101362
51	0x38b0ea7d	8.436011e-05
52	0xba7fa073	-0.0009751387
53	0xba454c73	-0.00075263454
54	0x3a6542db	0.0008745619
55	0xb8bc7b05	-8.987453e-05
56	0x38debf0a	0.00010621369
57	0xb976ab73	-0.00023524258
58	0xba63fec0	-0.00086973235
59	0xba8d9db1	-0.0010804442
60	0xba83c4df	-0.0010053179
61	0xb79ccde3	-1.8692523e-05
62	0xb7b1160a	-2.1110307e-05
63	0xba575769	-0.0008214624
64	0x3af758b2	0.0018871038
65	0xb98b47de	-0.0002656569
66	0x3a6526cb	0.00087414373
67	0xb79e7059	-1.8887384e-05
68	0x3a625f22	0.0008635392
69	0x398a5512	0.00026384793
70	0x39c6c479	0.00037911886
71	0x3a0c991b	0.00053633907
72	0x3a46a675	0.00075779046
73	0x38ffa5c4	0.00012190224
74	0x39963e2d	0.00028656554
75	0xba12891f	-0.00055898906
76	0x3ab9a8d7	0.0014164698
77	0x39c96703	0.00038414457
78	0x38ed44b2	0.00011313836
79	0x39b4dc56	0.00034496438
80	0x393622fb	0.00017369904
81	0x3a520936	0.0008012237
82	0xba1a7bda	-0.0005893089
83	0xbb10d56e	-0.002209987
84	0xbaa50f9c	-0.0012593153
85	0xba60ce0f	-0.0008575627
86	0x3a4d725d	0.0007837171
87	0xb847ea36	-4.7663423e-05
88	0xba3d6f5a	-0.00072263705
89	0x39de1df6	0.00042365462
90	0xba1e437a	-0.00060372765
91	0x39954e20	0.00028477702
92	0x3a6723d3	0.0008817289
93	0x3a451fab	0.00075196725
94	0xba9aa618	-0.0011798767
95	0x3a662b65	0.000878027
96	0x38d5f827	0.000102028534
97	0x3a47368f	0.00075993774
98	0xb9d34ed4	-0.00040303788
99	0xba9cd148	-0.0011964226
100	0x399060fd	0.00027538082
101	0x3a6cbe6c	0.00090310606
102	0xbaa78c24	-0.0012782854
103	0xb921971c	-0.00015410449
104	0x3a764451	0.0009394335
105	0xba8136c9	-0.0009858246
106	0x3a819f64	0.0009889421
107	0x3a4bcc9f	0.00077743264
108	0xb9a74987	-0.00031907504
109	0x3b1363ae	0.0022489834
110	0xb8f230de	-0.000115485615
111	0xbac2201c	-0.0014810595
112	0xbaee8446	-0.001819738
113	0x39d3abbe	0.00040373014
114	0x3aebae95	0.0017981107
115	0x39c0b267	0.00036754014
116	0x3a1cb032	0.0005977183
117	0xbab0a2f2	-0.0013476296
118	0xba888c98	-0.0010417877
119	0xb9e4ce49	-0.00043641243
120	0x39ccabfb	0.00039038048
121	0xb9148dc4	-0.00014167192
122	0xb98d812e	-0.00026989862
123	0xba3dfc7a	-0.00072474
124	0x3a223708	0.000618801
125	0x3a5be5b5	0.0008388416
126	0x3a51d071	0.00080037775
127	0x387bb4d1	6.001146e-05
128	0x3a1bac76	0.00059384794
129	0x3ae4f20c	0.0017467155
130	0xba8e1506	-0.0010840006
131	0xba5bd4d3	-0.00083859003
132	0xba76f6c9	-0.0009420929
133	0xba9c5590	-0.0011927355
134	0xb9d39114	-0.00040353148
135	0xbabfc921	-0.0014632085
136	0x3a53a578	0.0008073668
137	0x3a934488	0.0011235634
138	0xbae12214	-0.0017176294
139	0x39721e2f	0.00023090163
140	0x3984c76c	0.00025325583
141	0x39b53ee5	0.0003456987
142	0x3ac93e2c	0.0015353612
143	0xba1e6665	-0.00060424797
144	0xb9bb0600	-0.0003567189
145	0xbabbff33	-0.0014343023
146	0xba36d9df	-0.00069752143
147	0xb987e2b1	-0.00025918105
148	0x38a5a5d3	7.8987e-05
149	0xba470341	-0.00075917324
150	0xba208fee	-0.0006124963
151	0x391fa3ed	0.00015224489
152	0x39817fd4	0.00024700037
153	0x3a983e87	0.0011615314
154	0x387b5426	5.9921433e-05
155	0xba8595e1	-0.0010191762
156	0x3aae3593	0.0013291113
157	0xb9e332d1	-0.00043334675
158	0xb901aa9e	-0.00012365959
159	0x3a3047bf	0.0006724558
160	0x3ae87df9	0.0017737738
161	0x3aaefd79	0.0013350687
162	0xb85b4f11	-5.2287305e-05
163	0xbb0823b6	-0.0020773239
164	0xba070be6	-0.00051516143
165	0xbaac4d7a	-0.0013145648
166	0x3a1cf4ea	0.0005987423
167	0x39fbefeb	0.00048053203
168	0x37af2dc9	2.0882946e-05
169	0xba152803	-0.0005689861
170	0xb9a5e8c2	-0.0003164467
171	0xbae62b9f	-0.0017560608
172	0xbaf640f4	-0.0018787668
173	0xb9a1c23b	-0.00030853026
174	0xba10e73e	-0.0005527622
175	0xbaf94868	-0.0019018771
176	0xb9b15f1d	-0.00033830936
177	0xbaa55d36	-0.001261628
178	0xb891ecec	-6.958269e-05
179	0x3922f279	0.00015539852
180	0x37c6e4d3	2.3709994e-05
181	0x3a2beaf6	0.0006558144
182	0xbb02e6e8	-0.0019974057
183	0x399671e5	0.00028695088
184	0x396c307a	0.00022524773
185	0xb812dd6b	-3.5015324e-05
186	0x3ad4a8f6	0.0016224671
187	0x3adec221	0.0016995111
188	0xb9d710fd	-0.00041020653
189	0x387f6baf	6.0897026e-05
190	0xba948f0a	-0.0011334133
191	0x3a739883	0.00092924404
192	0xba41500f	-0.00073742954
193	0xb7c8c552	-2.3933742e-05
194	0x39800dfc	0.00024424482
195	0x39d90410	0.00041392492
196	0xba6cc827	-0.00090325106
197	0xbab69602	-0.0013930204
198	0x3aeda22d	0.0018129997
199	0xba825a2d	-0.0009945087
200	0x3ace0fe4	0.0015721289
201	0x3a230a7c	0.0006219519
202	0xba1dad95	-0.00060149404
203	0xba035fca	-0.0005011527
204	0xbaf1777d	-0.0018422451
205	0x3a40ebb9	0.0007359344
206	0xb9cb15d1	-0.00038735432
207	0x3aa3c8a7	0.0012495712
208	0xba4bfc5c	-0.000778144
209	0x3a3ccaea	0.00072018674
210	0xbaad2d35	-0.0013212325
211	0x3ab14709	0.0013525198
212	0xbaf831c2	-0.0018935727
213	0xba570371	-0.0008202112
214	0xb7c83507	-2.386655e-05
215	0xb9e8def7	-0.0004441661
216	0xbb2a1515	-0.0025952507
217	0x3a44c2de	0.0007505844
218	0x3a2bed57	0.0006558499
219	0xbaea9e7d	-0.0017900016
220	0x3a427c50	0.00074190367
221	0xb8524e67	-5.014092e-05
222	0x3a088238	0.00052073924
223	0x3a830ac7	0.0009997719
224	0xbac96c36	-0.0015367332
225	0xba011dd4	-0.0004925404
226	0xba14f568	-0.00056823203
227	0xbaabf324	-0.0013118726
228	0xb8cb0cf1	-9.682205e-05
229	0xbae6f0be	-0.0017619354
230	0xb9b68e4d	-0.00034819767
231	0xb9b89874	-0.000352088
232	0x3a44ed7e	0.0007512196
233	0x3ab5613e	0.0013838185
234	0xba58f31a	-0.0008275971
235	0xba6d39f5	-0.0009049469
236	0x3a731a69	0.000927365
237	0x3b219dc9	0.0024660698
238	0x3af5c93f	0.0018751993
239	0xbb15c2e0	-0.002285175
240	0x39e47c9e	0.00043580396
241	0x3aca0708	0.0015413472
242	0x3a8fb045	0.0010962567
243	0x3aaec43f	0.0013333632
244	0xba962f1b	-0.001145813
245	0x3a682301	0.00088553136
246	0xbaaff813	-0.0013425372
247	0xbb37cea7	-0.0028046758
248	0x3a267566	0.0006349891
249	0x3a8f6b54	0.001094202
250	0xbaa58b4e	-0.0012630017
251	0x3a358d53	0.0006925661
252	0x39e88101	0.00044346604
253	0xb97fda72	-0.00024400072
254	0x3a02cb5f	0.0004989411
255	0x39150134	0.00014210196

nonlinear_map.bias f4 [32]
0	0xb90ba7b8	-0.00013318553
1	0x3a64a4ee	0.0008722086
2	0x00000000	0.0
3	0xb9144958	-0.00014141703
4	0xb982b3f8	-0.0002492962
5	0xb8f15964	-0.00011508426
6	0x00000000	0.0
7	0xbaabf6e2	-0.0013119841
8	0x3d098bc5	0.03358056
9	0x3d2e5041	0.042557005
10	0xbe576af2	-0.2103689
11	0x3b46ac70	0.0030315183
12	0x3b2437c3	0.002505765
13	0x3acb509c	0.0015511694
14	0xb8f440da	-0.00011646906
15	0xb973c0b5	-0.00023246075
16	0xb87d6567	-6.041434e-05
17	0x3aa06a94	0.0012238794
18	0xb9abaa82	-0.000327427
19	0x00000000	0.0
20	0x3bc8f53a	0.006132749
21	0xb946f6c3	-0.00018974677
22	0x3ba8dcb9	0.0051532653
23	0xba037c7e	-0.0005015804
24	0x3ccb040b	0.024782201
25	0xb8fe8a4f	-0.00012137426
26	0xb91f8551	-0.00015213086
27	0xb953224b	-0.00020135303
28	0xb93144b9	-0.00016905637
29	0x3b63a201	0.0034734013
30	0xb9960d34	-0.00028620067
31	0x00000000	0.0

recon.weight f4 [3, 32, 5, 5]
0	0xb99028cf	-0.00027496225
1	0xba3af870	-0.0007132357
2	0xba9cdb23	-0.0011967163
3	0x3b011e49	0.001970189
4	0xb95dd01c	-0.00021153729
5	0xba7c73e3	-0.00096303056
6	0xb93ad665	-0.0001781821
7	0xbaf9bfbe	-0.0019054336
8	0xb97e214a	-0.00024235729
9	0x3a864e50	0.0010246728
10	0x3a468902	0.00075735163
11	0xbae43efa	-0.0017413788
12	0xb91c8ecf	-0.0001493052
13	0xb9e83f40	-0.00044297613
14	0x3a77d872	0.0009454555
15	0x36963e9e	4.477638e-06
16	0x3a950130	0.0011368152
17	0x3a986224	0.0011625928
18	0x38e53263	0.00010928956
19	0x38707bfa	5.733592e-05
20	0xb988812e	-0.00026036188
21	0xbab284a3	-0.0013619851
22	0x3afb3d49	0.0019168045
23	0x39aa9025	0.00032532323
24	0x3ad6cbce	0.0016387643
25	0x3b02ebb7	0.0019976923
26	0xbb5f7984	-0.0034099529
27	0xbbde1859	-0.006777805
28	0xbb9236d5	-0.004462103
29	0x3b49bf98	0.0030784365
30	0xbb53a988	-0.0032297093
31	0x3b318dbb	0.0027092535
32	0x3c0c2286	0.008553153
33	0x3b886ef1	0.004163616
34	0xbaf7189e	-0.0018851941
35	0xbbc6f9d5	-0.006072263
36	0x3c0df164	0.008663509
37	0x3c81abb2	0.015828941
38	0x3bd3b408	0.0064606704
39	0xbb38892e	-0.0028157937
40	0xbb9c0ae7	-0.004762042
41	0x3b34ba99	0.0027577041
42	0x3bee8df1	0.0072801043
43	0x3b3e5373	0.0029041439
44	0xbb910ded	-0.004426709
45	0x3799cab9	1.8333421e-05
46	0xbbbab678	-0.0056980215
47	0xbbff7169	-0.007795502
48	0xbb812573	-0.003941232
49	0x3b61d58e	0.0034459564
50	0x3a965d45	0.0011471888
51	0x37aed362	2.084085e-05
52	0x39d0ba92	0.00039811857
53	0x3a9802fa	0.0011597567
54	0xba1d66d7	-0.0006004399
55	0xb7c260d5	-2.3171693e-05
56	0xb9a0343a	-0.0003055649
57	0xb9428767	-0.00018551723
58	0x3a7862d0	0.00094751734
59	0xb95e0f5e	-0.00021177295
60	0x3abba89c	0.0014317217
61	0xba204796	-0.0006114183
62	0xb90e9cbd	-0.00013600565
63	0xbaf3bc64	-0.0018595573
64	0xba11240c	-0.00055366824
65	0x3a9c0936	0.00119046
66	0xbac8f96e	-0.0015333125
67	0x3a9246bf	0.001116
68	0xb9ce4890	-0.00039345445
69	0x3ab3fcb5	0.0013731929
70	0x3a94ffb8	0.0011367714
71	0x398b3a98	0.00026555802
72	0xba9b2daa	-0.001183917
73	0xb8ed0c87	-0.00011303374
74	0xbaff0b3b	-0.0019458303
75	0x3908e816	0.0001305643
76	0xba7611d6	-0.0009386813
77	0x3a8dade1	0.0010809266
78	0x3a85d365	0.0010210095
79	0xba77f0ad	-0.0009458166
80	0x3a66f8b1	0.00088108616
81	0x3a725a63	0.0009245036
82	0xba934dbe	-0.0011238379
83	0x3af19a47	0.0018432819
84	0xbaf0b3e0	-0.0018364154
85	0xbaa58afa	-0.0012629919
86	0xbb2de6f7	-0.002653537
87	0xba5b4c1f	-0.000836553
88	0x395662da	0.00020445455
89	0x3a30e34d	0.00067477376
90	0x3a112ed0	0.00055382866
91	0x39aec716	0.00033336197
92	0x3a172549	0.0005765749
93	0xbaa54cb2	-0.0012611358
94	0xb8fcc52f	-0.00012053025
95	0x3aa6d2db	0.0012727635
96	0x39a6e537	0.00031832766
97	0x3b04c71b	0.0020260278
98	0xbacb5d23	-0.0015515428
99	0xbac829d6	-0.0015271257
100	0xb95e6780	-0.00021210127
101	0xba52cc8a	-0.0008041343
102	0xba830fa7	-0.0009999172
103	0xbb03c9cf	-0.00201093
104	0xbb134038	-0.0022468697
105	0xba091da4	-0.0005230552
106	0x3893d488	7.049093e-05
107	0x3a8a7f3a	0.0010566481
108	0xb862327d	-5.392962e-05
109	0xbb148b5d	-0.0022666075
110	0x3ae9055d	0.0017778088
111	0xba334283	-0.0006838219
112	0x39a6cd6a	0.00031815033
113	0x3aca0b40	0.001541473
114	0xb915b766	-0.00014278069
115	0xba810ca9	-0.0009845692
116	0x3997df55	0.0002896736
117	0xba552174	-0.000813029
118	0xb9280e70	-0.00016027107
119	0xbace7f1b	-0.0015754433
120	0x3a3b4dee	0.00071450963
121	0x3a51e4cd	0.0008006811
122	0x39b52df9	0.00034557263
123	0x397275c9	0.00023122797
124	0x3817dff7	3.620979e-05
125	0xbaa1b280	-0.0012336522
126	0xbb1cee25	-0.0023945656
127	0xba423033	-0.0007407695
128	0xbb2e3bb4	-0.0026585879
129	0xbb334e1a	-0.0027359785
130	0x3a3efe9c	0.00072858646
131	0x3a798d3a	0.00095196406
132	0x3af06592	0.0018340817
133	0x3a5c0592	0.0008393164
134	0xba8e053a	-0.0010835298
135	0x3abfc426	0.00146306
136	0xbac4bdf1	-0.001501022
137	0x3a20fc6a	0.0006141128
138	0x3a045272	0.00050476857
139	0xba08b263	-0.000521457
140	0x3afdf01d	0.0019373927
141	0xba9e72d2	-0.0012088662
142	0xba6c79d3	-0.0009020839
143	0xb96f431c	-0.00022817816
144	0x3a8f3f16	0.0010928835
145	0x3a73740a	0.00092870055
146	0xba62a8bd	-0.000864636
147	0x3b049461	0.0020230042
148	0x38bc73b7	8.986092e-05
149	0x3a717b0f	0.00092117576
150	0x383289de	4.2566906e-05
151	0x39e19585	0.00043026745
152	0xba6e143a	-0.00090819935
153	0x3a076480	0.0005164817
154	0x38b1ce16	8.478404e-05
155	0xba24f943	-0.00062932464
156	0x3a847b81	0.0010107608
157	0xb924af10	-0.00015705475
158	0xba0f2f60	-0.00054620765
159	0x3a78f0ee	0.00094963505
160	0x3a46ecd8	0.0007588393
161	0x3a50a2fc	0.0007958857
162	0x3a499b71	0.0007690704
163	0x3aa8bcdb	0.0012873666
164	0x3a2209f5	0.0006181293
165	0xba169885	-0.0005744773
166	0xb8845edd	-6.31192e-05
167	0xba9c31d1	-0.0011916702
168	0xb9faa5f2	-0.00047807355
169	0x3a1fb07b	0.00060916663
170	0xba337578	-0.00068458123
171	0xbb19d39e	-0.002347208
172	0xb9778bf8	-0.00023607898
173	0xba8d7333	-0.0010791778
174	0x39609200	0.00021416694
175	0xbb865bc2	-0.004100294
176	0xbbd4a8c4	-0.006489845
177	0xbc23140f	-0.009953513
178	0xbc03192e	-0.008001609
179	0xbb7af292	-0.0038291556
180	0xbc0b9525	-0.008519446
181	0xbab8704a	-0.0014071551
182	0x3a3596b3	0.0006927058
183	0xbb2c5537	-0.002629591
184	0xbbdf7604	-0.0068194885
185	0xbc1617d0	-0.009160951
186	0x3b0a6116	0.0021114997
187	0x3c244f3f	0.010028659
188	0x3b8da605	0.0043227696
189	0xbbed1eec	-0.007236352
190	0xbbfb4b08	-0.0076688565
191	0xbb137873	-0.0022502213
192	0x3a93f8a7	0.0011289314
193	0xba21da4e	-0.00061741925
194	0xbbe91eaa	-0.007114251
195	0xbb445570	-0.0029958151
196	0xbbdd98c3	-0.0067625954
197	0xbc1045b3	-0.00880568
198	0xbc0874c0	-0.008328617
199	0xbb093bff	-0.0020940301
200	0xbc9f8a3d	-0.019475097
201	0xbb088f41	-0.002083734
202	0x3ae87e74	0.0017737881
203	0xbc33ecd4	-0.010981757
204	0xbcebe443	-0.028795367
205	0xbb15e822	-0.0022873958
206	0x3cef683c	0.029224508
207	0x3d25232f	0.040316757
208	0x3cc32b6d	0.023824418
209	0xbc26f2c3	-0.010189715
210	0x3a293c31	0.00064558076
211	0x3d249ce7	0.040188696
212	0x3d6d48d4	0.057930782
213	0x3d221fb9	0.039581034
214	0xbac2a14d	-0.0014849097
215	0xbc259d03	-0.010108235
216	0x3cbc9230	0.023018926
217	0x3d1ef52f	0.038808044
218	0x3cd015e7	0.025401069
219	0xbc0863eb	-0.008324604
220	0xbd0252da	-0.031817295
221	0xbc217d9e	-0.00985661
222	0xba91e450	-0.0011130664
223	0xbbb15220	-0.0054114014
224	0xbcd2e84c	-0.025745533
225	0xbcd08e18	-0.02545838
226	0xbcc2a0d9	-0.023758339
227	0xbc6d3157	-0.014477096
228	0xbcc9879b	-0.024600795
229	0xbcd26a7d	-0.025685543
230	0xbd044f90	-0.03230244
231	0x3bb9f270	0.0056746528
232	0x3d49f1f3	0.049303006
233	0x3c9a42e8	0.018830732
234	0xbcafc0ea	-0.021454293
235	0xbcfc66e6	-0.030810785
236	0x3cf61699	0.030040072
237	0x3db0ccfc	0.08632848
238	0x3d595bab	0.053065937
239	0xbc05bcb7	-0.008162669
240	0xbd1142da	-0.035464145
241	0xbb5c9509	-0.0033658168
242	0x3d2a0e7a	0.041517712
243	0x3cb720f0	0.022354573
244	0xbc36b0b1	-0.011150525
245	0xbcd3e979	-0.025868164
246	0xbd3efe58	-0.04662928
247	0xbcf6e143	-0.03013671
248	0xbcb4550a	-0.022013206
249	0xbbc17884	-0.005904259
250	0x3d360f7e	0.04444837
251	0xbd2b0f93	-0.0417629
252	0xbd68a156	-0.056794487
253	0xbcd9e303	-0.026597505
254	0x3d874960	0.06605792
255	0xbd0bbca0	-0.034115434

recon.bias f4 [3]
0	0xbb872830	-0.004124664
1	0x3cc3bb39	0.023892986
2	0x3bb3fa70	0.005492501
