checkpoint/SRCNN955/ckpt.pt (torch, 836271 bytes, 18 tensors)

patch_extraction.weight f4 [64, 3, 9, 9]
-0.026321637 -0.02363776 0.004997701 0.0152103305 0.013579869 0.00638949 -0.009584595 -0.018643769
0.009402881 -0.026743405 -0.006355783 0.010879039 -0.0026824176 -0.022332292 -0.0097299 0.005338145
-0.009350693 -0.016262935 0.0068147406 0.015408538 0.0056965244 -0.006050739 -0.021263741 -0.0074320305
0.013712307 0.0124755325 -0.0055626677 0.022701334 0.0036491335 -0.010419597 0.02565186 0.042276006
0.025217816 0.0058006314 0.008769785 0.0017061667 0.017116852 -0.018013569 -0.022782907 0.03888422
0.07385193 0.037906405 -0.008939141 -0.002800775 0.005115903 0.007101714 -0.0053530135 -0.0034077486
0.02350759 0.036303163 0.020284817 0.0010112242 0.011433271 0.0134760225 -0.0074476497 0.0064609754
0.013877756 -0.0057756766 -0.019381016 -0.007485041 0.013449865 0.015877485 0.011280403 -0.028640404
-0.011517717 0.0054731304 -0.00030676828 -0.0064728074 0.007656059 0.017182522 -0.009252899 -0.009096473
-0.005517203 -0.020009235 -0.009141764 0.014752606 0.030882685 0.026468847 -0.00021015303 -0.038092405
-0.0143854525 0.0138494205 0.010528527 0.014482134 0.029073227 0.031493653 0.017982686 -0.0067894747
-0.018584836 -0.016416658 0.0073445854 0.003272239 -9.84845e-05 0.0126669 0.025562832 0.023268498
0.009472639 0.00044212813 -0.0051424103 0.010662305 0.0043778513 -0.011270004 -0.016153447 -0.0036766736
0.0033486043 0.011352838 0.019575732 0.014167087 0.024214242 0.019232059 -0.00903736 -0.027988346
-0.028948534 -0.018798351 0.0073566902 0.037479196 0.032905158 0.0263568 0.03177705 0.0031852217
-0.021711925 -0.034263104 -0.026644228 0.0020127853 0.035475396 0.03701042 0.010231873 0.023527531
0.0066338307 -0.011357681 -0.020103494 -0.018458936 -9.194963e-05 0.023693461 0.022281852 -0.009763348
0.0009183284 0.0018748656 0.006163559 0.0069021364 0.004725235 0.0013145771 0.0072015557 0.0027757727
-0.01494201 -0.01142225 0.0037981614 0.026814893 0.03684093 0.030815495 0.009909611 -0.0033783866
-0.011675713 0.0013894337 -0.008206964 0.0046920097 0.021709917 0.031125687 0.024324534 0.0045013805
-0.007875797 -0.014784031 0.009371835 0.015595073 0.009384581 -0.0021119989 -0.013748346 -0.008448453
0.0031647196 0.010624395 0.007127673 0.011141043 0.005319996 -0.0063117403 -0.017211078 -0.024910817
-0.017013988 -0.007520338 0.0008713289 -0.0008413112 0.004845056 -0.013680808 -0.016163005 -0.011429795
-0.00834355 -0.003975579 -0.005921533 -0.009357472 -0.0079508675 -0.005458685 -0.027884016 -0.017055612
0.007670222 0.025538241 0.020279765 0.0012940029 -0.018142927 -0.019056266 -0.011625663 -0.03296893
-0.013775673 0.021288523 0.04627597 0.036166552 0.002915379 -0.02391512 -0.022768402 -0.007316241
-0.023858363 -0.009409161 0.020222565 0.0387607 0.027807703 -0.0002152791 -0.022029616 -0.01797936
0.0021598719 -0.008662145 -0.0061461325 0.0048087435 0.012949948 0.007691888 -0.0043621 -0.009346416
-0.004128448 0.0027050849 -0.0012086272 -0.0047062095 -0.007546419 -0.010787508 -0.0054326695 0.0012784642
0.006885098 0.015881415 -0.0020886771 0.0012363881 -0.0016698139 -0.009967987 -0.016200453 -0.008551792
0.0061949412 0.021580126 0.026100356 -0.0052330336 -0.010997253 0.0023211222 0.005994341 0.0033850824
0.0025287594 0.004169877 -0.0057946104 -0.0029308074 -0.00087654655 -0.0042184102 0.005008322 -0.002624172
00000000: 79a0 d7bc faa3 c1bc c1c3 a33b c034 793c
00000010: 197e 5e3c ed5e d13b b508 1dbc d1ba 98bc
00000020: 8b0e 1a3c fc14 dbbc 2c44 d0bb ff3d 323c
00000030: 80cb 2fbb 36f2 b6bc 296a 1fbc 9beb ae3b
00000040: a633 19bc d939 85bc 304e df3b 1874 7c3c
00000050: e9a9 ba3b 4745 c6bb 4c31 aebc 6488 f3bb
00000060: 96a9 603c 2d66 4c3c 0a47 b6bb 26f8 b93c
00000070: 4d26 6f3b f5b6 2abc d923 d23c 9b29 2d3d
00000080: 9895 ce3c 3913 be3b 25af 0f3c 74a1 df3a
00000090: a438 8c3c 3191 93bc 38a3 babc 0f45 1f3d
000000a0: ae3f 973d bf43 1b3d 7a75 12bc 358d 37bb
000000b0: 4ea3 a73b 7fb5 e83b 5568 afbb 8954 5fbb
000000c0: fd92 c03c a0b2 143d 582c a63c 0e8b 843a
000000d0: 9d52 3b3c 89ca 5c3c 6a0b f4bb 97b6 d33b
000000e0: 875f 633c e341 bdbb f0c4 9ebc 1345 f5bb
000000f0: d35c 5c3c 8011 823c 70d1 383c 489f eabc
00000100: ceb4 3cbc f257 b33b bed5 a0b9 d819 d4bb
00000110: aedf fa3b 5cc2 8c3c 7999 17bc 6009 15bc
00000120: a7c9 b4bb 68ea a3bc 56c7 15bc eab4 713c
00000130: affd fc3c 32d5 d83c 865c 5cb9 c806 1cbd
00000140: f6b0 6bbc aee8 623c d87f 2c3c 7946 6d3c
00000150: fa2a ee3c 7dff 003d 6d50 933c 3e7a debb
00000160: 3a3f 98bc 3a7c 86bc d9aa f03b 0f73 563b
00000170: 7789 ceb8 d488 4f3c 2569 d13c 949d be3c
00000180: 2133 1b3c 6fcd e739 aa81 a8bb f3b0 2e3c
00000190: 1474 8f3b d3a5 38bc 3c54 84bc 59f4 70bb
000001a0: 4274 5b3b 4101 3a3c 495d a03c 121d 683c
000001b0: f25c c63c 8d8c 9d3c 6f11 14bc d147 e5bc
000001c0: 7a25 edbc 00ff 99bc 6410 f13b c983 193d
000001d0: 8fc7 063d 37ea d73c a728 023d 27bf 503b
000001e0: 35dd b1bc 7857 0cbd ff44 dabc efe8 033b
000001f0: a64e 113d 3d98 173d 96a3 273c cfbc c03c
00000200: 9b60 d93b 9115 3abc 15b0 a4bc 3237 97bc
00000210: 15d5 c0b8 ca18 c23c 6e88 b63c 73f6 1fbc
00000220: fabb 703a 0dbe f53a aef7 c93b 512b e23b
00000230: 25d6 9a3b e34d ac3a 07fb eb3b bde9 353b
00000240: 55cf 74bc 6424 3bbc 93ea 783b e8aa db3c
00000250: 84e6 163d c770 fc3c ec5b 223c ec67 5dbb
00000260: 7d4b 3fbc a91d b63a 8076 06bc 6ebf 993b
00000270: ffd8 b13c 4cfb fe3c 3f44 c73c 5180 933b
00000280: 7d09 01bc b838 72bc 538c 193c 7a82 7f3c
00000290: c9c1 193c 7669 0abb be40 61bc 616b 0abc
000002a0: 2f67 4f3b f111 2e3c 418f e93b ec88 363c
000002b0: 5c53 ae3b b7d2 cebb 3ffe 8cbc c511 ccbc
000002c0: eb60 8bbc 2b6d f6bb e569 643a 708b 5cba
000002d0: 47c3 9e3b 7825 60bc 4768 84bc 0944 3bbc
000002e0: 63b3 08bc 9345 82bb 6b09 c2bb 1550 19bc
000002f0: 5b44 02bc c5de b2bb 056d e4bc 36b8 8bbc
00000300: 7c56 fb3b 9335 d13c c021 a63c 889b a93a
00000310: 7aa0 94bc e31b 9cbc 9179 3ebc 6e0a 07bd
00000320: 5cb3 61bc 4565 ae3c df8b 3d3d 6123 143d
00000330: f10f 3f3b a4e9 c3bc cd84 babc 14bd efbb
00000340: 9d72 c3bc e228 1abc cba9 a53c 8ac3 1e3d
00000350: fbcc e33c 8bbc 61b9 7477 b4bc 7349 93bc
00000360: a38c 0d3b abeb 0dbc 7f65 c9bb aa92 9d3b
00000370: 052c 543c 3c0c fc3b f2ef 8ebb b621 19bc
00000380: ef47 87bb cb47 313b cd6a 9eba 8c36 9abb
00000390: f347 f7bb 17be 30bc 8904 b2bb 2492 a73a
000003a0: 639c e13b be19 823c 30e2 08bb 4d0e a23a
000003b0: a8dd daba c550 23bc d0b6 84bc d11c 0cbc
000003c0: effe ca3b cec8 b03c 6ad0 d53c de79 abbb
000003d0: d22d 34bc f81d 183b 2d6c c43b 42d8 5d3b
000003e0: 8bb9 253b 77a3 883b b7e0 bdbb ca12 40bb
000003f0: 0bc8 65ba 973a 8abb da1c a43b 4dfa 2bbb

patch_extraction.bias f4 [64]
0.00035997343 0.0035316923 0.007975224 -0.06852684 -0.00011879424 -0.028087478 0.0019779506 -0.24078894
-0.0002668335 0.0061432775 -0.00012992579 -0.00011904739 0.0 -0.00016457481 0.0 -0.00013508505
0.003746964 -0.004927525 -0.00016255325 -0.0033157747 -0.0010526569 0.0048160604 0.00093464274 8.27222e-05
-0.00011327065 0.0040545873 0.005429686 -0.0014116319 -0.006529951 -0.0005460486 0.0 -0.002515206
-0.006211231 0.0 -0.004650723 -0.0001553046 -0.0047983266 0.0 -0.007350062 -0.005581072
-0.0030824959 0.019294387 0.048582695 -5.0588933e-05 -0.00019029062 -0.000120673554 0.001727905 0.0052386895
-0.001308816 -0.005199269 -2.9937974e-05 -0.0047050486 0.0 -0.00011507808 -0.004753817 -0.012006588
-0.02917862 0.002396934 -0.00017407624 1.9950463e-05 0.00042574856 0.047127284 0.0 -0.0009786034
00000000: d1ba bc39 f773 673b 84aa 023c cd57 8cbd
00000010: 2c21 f9b8 b617 e6bc 81a0 013b 6091 76be
00000020: c9e5 8bb9 8c4d c93b b03c 08b9 15a9 f9b8
00000030: 0000 0000 b791 2cb9 0000 0000 9ea5 0db9
00000040: a08f 753b 1377 a1bb 0e73 2ab9 784d 59bb
00000050: 4ef9 89ba 0bd0 9d3b d002 753a 257b ad38
00000060: b88b edb8 58dc 843b 82eb b13b 8206 b9ba
00000070: 33f9 d5bb b424 0fba 0000 0000 28d6 24bb
00000080: 9587 cbbb 0000 0000 1865 98bb 43d9 22b9
00000090: 483b 9dbb 0000 0000 cad8 f0bb 6de1 b6bb
000000a0: b303 4abb 430f 9e3c a6fe 463d 742f 54b8
000000b0: c088 47b9 1f12 fdb8 df7a e23a 50a9 ab3b
000000c0: 948c abba a15e aabb 4f23 fbb7 cf2c 9abb
000000d0: 0000 0000 1356 f1b8 e8c5 9bbb 48b7 44bc
000000e0: 0008 efbc e115 1d3b 3c88 36b9 4b5b a737
000000f0: 0137 df39 8a08 413d 0000 0000 7b44 80ba

nonlinear_map.weight f4 [32, 64, 5, 5]
-0.0050165076 0.0047620484 0.003520996 0.0021670582 -0.0035442545 -0.0030103729 0.01258192 0.018413242
0.008131086 -0.0073770676 -0.0023638622 0.014228588 0.01868062 0.009409586 -0.009707199 -0.0043947985
0.0074841054 0.008025232 -8.054509e-05 -0.01336301 -0.010804897 -0.006794073 -0.005574894 -0.0103056915
-0.012111785 -0.00019538529 -0.0008159761 -0.0010614315 -0.0010147593 -0.0018799945 -0.0047908193 -0.0003436968
0.0010731757 0.0029708126 0.00022814215 -0.008664555 -0.001071559 0.0073623373 0.0085267825 0.0051173717
-0.007392028 -0.0013204754 0.0051085944 0.01044403 0.003785003 -0.0085034985 -0.0031085843 0.0029166257
0.0030279385 0.0015356465 0.0030072732 0.0022593476 0.0023342178 0.0016650556 0.0021835056 0.0027582252
0.0032545205 0.0029804264 0.0015038741 0.0009856552 0.0014082661 0.0023703342 0.001207675 -0.0006734247
0.0011403618 0.0003794377 0.0017091774 0.00033699998 0.0018185045 0.0016669453 8.635217e-06 0.0010719313
0.001995277 0.0033377775 0.0035857 0.015529168 0.013271998 0.009306998 0.0056365062 0.007428538
0.010655731 -0.0017198243 -0.002488021 -0.004839544 -0.00026782983 0.0069037867 -0.008949736 -0.0070871715
-0.0015550263 0.0017756613 0.0087283775 -0.005047875 -0.0067292606 0.0026328887 0.0058102254 0.016021073
0.0066947634 0.0076774033 0.01376403 0.016465949 -0.0007219564 0.00065174204 -9.903489e-05 -1.0521836e-05
-0.0019349952 0.00203115 -0.00084218866 -0.0008211198 -0.00048108475 -7.16393e-05 -0.00035717554 0.0011948533
-0.0013710709 0.0006363019 -0.000420261 -0.00070815976 -0.000690148 -0.0004211536 -0.00068010995 0.00010053739
0.0009092061 0.00183146 0.0001990514 -0.00060200837 0.0019238609 -0.00014911318 -0.0020669177 -0.008250736
-0.008194481 -0.003610961 0.000116171876 0.008311392 0.010522635 0.0005105899 -0.011153555 -0.0021564648
0.009427042 0.022665888 0.019147705 -0.009363962 -0.0023344187 0.0013719208 0.014387025 0.018726572
-0.0015990188 -0.0038508496 -0.008553851 -0.0059294305 0.002885673 -0.00019614756 -0.0065440293 0.0016411518
0.0013876901 -0.0022852547 -0.0074401875 -0.001128939 0.012068948 0.016031504 0.007296006 -0.0059043528
0.0007553081 0.016055547 0.023255765 0.013825465 -0.003775505 -0.003600455 0.010390508 0.014489083
0.008386178 -0.004921547 -0.008616454 -0.002111474 -0.0014408628 -0.0032952959 -0.00947046 0.0021766429
-0.0028286169 -0.004025217 -0.0040636244 0.0034725352 0.0026578293 0.0047136573 0.007127473 0.005330936
0.0046187453 -0.0032941299 -0.0020161981 0.009576878 0.011714486 0.00049410504 0.0047311494 -0.0067148763
0.0029853436 0.014940225 0.012400427 0.01747721 0.00083386706 -0.0010851905 0.014067499 0.02516481
0.0041316547 -0.003148965 -0.00370895 -0.0009082659 0.0048776004 0.0031274534 -0.009205584 -0.008609394
-0.004302916 0.0020915933 0.00060277875 -0.0054403637 -0.005797999 -6.381752e-05 0.0015780354 0.0029414704
0.00025635655 -0.0013200161 0.0017329819 0.003032896 0.0074561047 0.006225469 0.0026409803 0.0018722343
0.0017967117 0.0028826282 0.005772382 0.00625559 0.0037228353 -0.0007427452 0.0019048537 0.005766141
0.00647605 0.0030836228 0.00092014455 0.0012609805 0.002659507 0.0038226284 0.0039602164 0.0020437813
-0.0007353582 -0.0020818876 0.0024796228 0.0030444101 0.0029272884 -0.004002526 -0.0024726042 -0.0034363847
-0.0010213976 0.0014497689 7.7732424e-05 -0.0005199571 -0.0002346949 -1.581341e-06 -4.748478e-05 0.0010138365
00000000: 8461 a4bb f50a 9c3b 83c0 663b 3405 0e3b
00000010: b946 68bb ad49 45bb 6624 4e3c 5ed7 963c
00000020: 3f38 053c 54bb f1bb 07eb 1abb 061f 693c
00000030: 1908 993c aa2a 1a3c f20a 1fbc 3e02 90bb
00000040: 3a3d f53b 437c 033c 51ea a8b8 87f0 5abc
00000050: 0607 31bc d1a0 debb 9aad b6bb 34d9 28bc
00000060: 8270 46bc 57e0 4cb9 3be7 55ba bb1f 8bba
00000070: ac01 85ba 266a f6ba 4efc 9cbb 3432 b4b9
00000080: cda9 8c3a f7b1 423b 7139 6f39 c7f5 0dbc
00000090: 8e73 8cba c33f f13b ebb3 0b3c a0af a73b
000000a0: d338 f2bb cd13 adba ff65 a73b 701d 2b3c
000000b0: d00d 783b 4252 0bbc 64b9 4bbb dc24 3f3b
000000c0: 6170 463b bf47 c93a ac15 453b 9011 143b
000000d0: adf9 183b ff3d da3a 2519 0f3b 57c3 343b
000000e0: cb49 553b 4253 433b a41d c53a 1a31 813a
000000f0: 9295 b83a 9c57 1b3b d94a 9e3a c488 30ba
00000100: 3178 953a 44ef c639 7a06 e03a 5faf b039
00000110: e35a ee3a 677d da3a f9df 1037 0c80 8c3a
00000120: 31c3 023b 9dbe 5a3b 10fe 6a3b 0d6e 7e3c
00000130: cb72 593c 617c 183c 71b2 b83b 186b f33b
00000140: 6095 2e3c ba6b e1ba 110e 23bb 0a95 9ebb
00000150: 836b 8cb9 2939 e23b eaa1 12bc 813b e8bb
00000160: 06d2 cbba 4ebd e83a 7801 0f3c a568 a5bb
00000170: 2181 dcbb 8b8c 2c3b b463 be3b a03e 833c
00000180: bf5f db3b ba92 fb3b 8782 613c 99e3 863c
00000190: ad41 3dba abd9 2a3a f4b0 cfb8 f186 30b7
000001a0: aa9f fdba 0b1d 053b 53c6 5cba 6b40 57ba
000001b0: 1a3a fcb9 0e3d 96b8 4a43 bbb9 a09c 9c3a
000001c0: 81b5 b3ba 7fcd 263a 7a56 dcb9 cca3 39ba
000001d0: 0ceb 34ba 48ce dcb9 6849 32ba 9ad7 d238
000001e0: ca57 6e3a 9a0d f03a 74b8 5039 19d0 1dba
000001f0: 0f2a fc3a 445b 1cb9 2075 07bb 182e 07bc
00000200: 2542 06bc dfa5 6cbb 4da1 f338 812c 083c
00000210: 2167 2c3c 1cd9 053a 66bd 36bc 7a53 0dbb
00000220: e173 1a3c d0ad b93c a6db 9c3c 4e6b 19bc
00000230: 0cfd 18bb 06d2 b33a 8eb7 6b3c 7868 993c
00000240: 2b96 d1ba 895e 7cbb 7425 0cbc ab4b c2bb
00000250: 8f1d 3d3b f6ac 4db9 4c6f d6bb eb1b d73a
00000260: 27e3 b53a 36c4 15bb d1cc f3bb e8f8 93ba
00000270: d6bc 453c 8054 833c 5613 ef3b 4d79 c1bb
00000280: deff 453a ec86 833c e082 be3c 3484 623c
00000290: 776e 77bb 9cf5 6bbb f33c 2a3c 9e63 6d3c
000002a0: 2e66 093c ee44 a1bb 072c 0dbc a860 0abb
000002b0: 55db bcba e4f5 57bb fd29 1bbc 02a6 0e3b
000002c0: 5160 39bb f8e5 83bb 2728 85bb 7993 633b
000002d0: fa2e 2e3b 0675 9a3b 948d e93b 22af ae3b
000002e0: d858 973b 54e2 57bb 3122 04bb 56e8 1c3c
000002f0: 1eee 3f3c d486 013a c207 9b3b 7708 dcbb
00000300: c1a5 433b d8c7 743c 292b 4b3c 5e2c 8f3c
00000310: df97 5a3a f33c 8eba 5e7b 663c 6e26 ce3c
00000320: d562 873b de5e 4ebb db11 73bb b118 6eba
00000330: 47d4 9f3b f6f5 4c3b 05d3 16bc 6a0e 0dbc
00000340: 7aff 8cbb 1d13 093b cc03 1e3a 1445 b2bb
00000350: 24fd bdbb c5d5 85b8 15d6 ce3a afc5 403b
00000360: 9867 8639 6404 adba 3925 e33a 8dc3 463b
00000370: 5752 f43b 05ff cb3b 4c14 2d3b c265 f53a
00000380: a47f eb3a 7aea 3c3b 4026 bd3b b1fb cc3b
00000390: d0fa 733b c9b4 42ba 49ac f93a e6f1 bc3b
000003a0: 0b35 d43b 9b16 4a3b db35 713a 7c47 a53a
000003b0: 204b 2e3b 1085 7a3b b4c4 813b f6f0 053b
000003c0: 0ec5 40ba 4770 08bb 2b81 223b ba84 473b
000003d0: c0d7 3f3b 9f27 83bb 6a0b 22bb f834 61bb
000003e0: 6be0 85ba 2c06 be3a 4704 a338 bb4d 08ba
000003f0: 6f18 76b9 773e d4b5 652a 47b8 b5e2 843a

nonlinear_map.bias f4 [32]
-0.0056617577 -0.00012008678 -0.000120109 -0.0020129813 -0.00014493742 -9.58577e-05 -0.00042592033 -0.00018487737
0.0030943542 -0.00012008228 -0.002623783 0.0 -0.003740406 -0.00013977531 -0.00012010698 -0.0001233648
-0.0042050113 -0.00066528725 -0.007657429 -0.004229841 0.002003156 -0.00014020481 -0.0005411461 -0.00019061733
-0.0001201045 -0.0032580416 0.0028493751 0.0025893103 0.0010033706 -7.059332e-05 0.032416657 -0.0035302988
00000000: 4486 b9bb 19d7 fbb8 07e3 fbb8 39ec 03bb
00000010: 58fa 17b9 3607 c9b8 0f4e dfb9 a4db 41b9
00000020: a6ca 4a3b afd4 fbb8 c6f3 2bbb 0000 0000
00000030: 9921 75bb a690 12b9 f2e1 fbb8 7d5b 01b9
00000040: 31ca 89bb ac66 2eba 2ceb fabb 7a9a 8abb
00000050: 6247 033b f103 13b9 b3db 0dba 73e0 47b9
00000060: 9de0 fbb8 de84 55bb 95bc 3a3b 6bb1 293b
00000070: 8883 833a 800b 94b8 54c7 043d 965c 67bb

recon.weight f4 [3, 32, 5, 5]
0.0014857912 -0.002113452 -0.0014889098 0.0002529742 0.0050353818 0.0016712036 0.0016302845 -0.0016718883
-0.0034039437 0.0015397528 0.0003716475 0.0019170973 -0.00085891044 -0.00446404 -0.0016158257 0.00076892565
0.00034293203 -0.0005974537 -0.0019047642 -0.00013391416 0.0021300265 7.0482216e-05 -0.0016608856 -0.000679649
-0.0012348031 -0.0011296464 0.00079487066 0.00034377957 0.0017183821 -0.00019125221 0.00054460095 0.0013538486
-0.0012861021 0.0016481768 0.0010273235 -0.0018837914 6.375035e-05 0.002748875 7.753706e-06 -0.0010224843
-0.00050667004 0.0019240611 -0.0018299656 0.0003297275 -0.0013099598 -0.00050243636 -1.8960619e-06 0.00011720829
-0.00030007135 0.00021108364 -0.00077891286 -0.0013076008 0.00093604287 0.00012441969 0.0016646441 0.0007185249
0.0007399657 -0.0016928884 0.0010234138 0.00060728326 0.002439379 0.0011004469 -0.0012740765 0.00019752055
-0.0004365388 -0.00038988778 0.0003480791 0.001611728 -0.0013844318 -0.0005828218 -0.0001520129 -0.00036381016
0.0028078468 -0.0002873177 -0.0015432046 -0.0037837597 -0.00922442 -0.0034324022 0.0029402839 -0.0017637339
-0.0008851859 -0.003083874 0.0049271714 0.011236174 0.0054070274 0.004363458 0.014463331 0.014262861
0.009314995 0.0044394415 0.00038359658 0.0171826 0.01599056 0.0024595268 -0.0039366777 -0.007855092
0.0009768731 0.0022686662 -0.0027893556 -0.0029815966 -0.00060245726 0.00028615238 0.0007734115 -0.0002774608
0.00034504544 -0.00034137862 0.00020496399 0.0005226638 7.647698e-05 -0.0012487391 -0.00040738803 -0.00093810644
-0.00045670997 0.0006661177 4.85265e-05 -0.0014266726 -1.0388156e-05 0.0008834155 0.00021730123 -0.00047178168
-0.0010187585 0.00010386632 -0.0002446932 -0.0018145802 -0.00029740084 0.00010397138 0.00040158562 -0.00027839938
0.00021652333 0.00033182223 0.001065404 -0.00039834157 0.0005819221 -0.0009893564 -0.0006169487 0.00015996146
-0.0020118698 -0.0012854756 0.00042018705 -0.00014956594 0.002470244 0.0002773889 2.6696189e-05 0.00045077014
-6.109678e-05 0.00087325677 -0.00085863366 0.0014193779 0.0025888032 -0.0007121293 0.0014831068 0.001992716
0.001283295 0.0013409994 -0.0017565127 -0.0005174853 -0.0007849926 -0.00037824767 -3.0913616e-05 0.0021164948
-0.0014939718 0.0007124638 -0.00079365907 0.00072560675 0.0003583372 -0.0008433199 0.0009332978 0.0006795432
-1.2572127e-05 -0.00039208643 0.0009234497 0.0001209189 -0.000552492 0.0017045292 0.0009488824 -0.0003644332
-0.00052199606 0.0013134674 0.00032194174 0.0020124102 -0.0003715979 0.0014388808 -0.00018260155 -0.00017342776
-0.0016100983 -0.00038439262 0.0015581463 -0.0011185323 0.0010107625 -0.00047106642 -0.0004965952 0.00076461775
5.2253563e-05 -0.0002294367 -0.0007395997 0.0013763246 0.000374842 0.0007234636 -0.0014958321 0.00018151346
0.013821443 -0.038951073 -0.029448763 0.0028751804 -0.029479079 0.0117045995 -0.02560403 -0.009658625
0.048989657 0.019528933 0.00978449 0.05670864 0.064680405 0.035732288 0.0050222133 -0.029703809
0.06738086 0.07532875 -0.048072305 -0.06618145 -0.06688307 -0.0083411755 0.01571038 -0.06271597
-0.05016501 -0.0016443225 0.00074761646 -0.001527232 0.0015220712 0.00065588433 -0.0004289514 0.00025883768
0.00057637173 -0.0009310727 3.1649397e-05 -0.00059547054 -0.0010948089 -0.0010529438 -0.0013822456 -0.0007482075
-0.002547231 0.002375 -0.001876968 0.0019298287 -0.00014413668 0.000679339 0.0011041044 -0.0013074848
-0.00075063185 -3.5507284e-05 -0.0029543475 -0.00087112316 0.0001676099 0.0011478837 0.002010173 -0.0014678342
00000000: e1be c23a d781 0abb 8627 c3ba 9fa1 8439
00000010: d8ff a43b 4a0c db3a 45af d53a 4323 dbba
00000020: b314 5fbb 88d1 c93a afd9 c239 1c47 fb3a
00000030: 8128 61ba 1547 92bb 1dca d3ba ba91 493a
00000040: 8fcb b339 709e 1cba 48a9 f9ba 4f6b 0cb9
00000050: ea97 0b3b dacf 9338 13b2 d9ba 792a 32ba
00000060: 1ed9 a1ba a510 94ba de5e 503a 503d b439
00000070: 563b e13a e08a 48b9 8dc3 0e3a 9f73 b13a
00000080: 6d92 a8ba a307 d83a 42a7 863a 8de9 f6ba
00000090: b5b1 8538 7826 343b ea15 0237 e104 86ba
000000a0: 0dd2 04ba c730 fc3a 75db efba 47df ac39
000000b0: f5b2 abba efb5 03ba 317c feb5 b9cd f538
000000c0: e552 9db9 5556 5d39 f52f 4cba cd63 abba
000000d0: c660 753a a876 0239 3030 da3a 645b 3c3a
000000e0: 42fa 413a e9e3 ddba 1224 863a 1732 1f3a
000000f0: fddd 1f3b df3c 903a eafe a6ba 851d 4f39
00000100: 3fdf e4b9 da69 ccb9 637e b639 9e40 d33a
00000110: d375 b5ba 82c8 18ba a765 1fb9 c6bd beb9
00000120: da03 383b 21a3 96b9 5b45 caba f4f8 77bb
00000130: 0622 17bc 27f2 60bb c7b1 403b 172d e7ba
00000140: d20b 68ba d21a 4abb 1c74 a13b ee17 383c
00000150: 6f2d b13b 57fb 8e3b 9bf7 6c3c c6ae 693c
00000160: ec9d 183c bc78 913b 761d c939 86c2 8c3c
00000170: a3fe 823c 0330 213b 3fff 80bb a5b2 00bc
00000180: 6c0a 803a e7ad 143b 9fcd 36bb e466 43bb
00000190: 39ee 1dba b906 9639 c4be 4a3a 2878 91b9
000001a0: 37e7 b439 10fb b2b9 9aeb 5639 6003 093a
000001b0: 4462 a038 bbac a3ba b296 d5b9 42eb 75ba
000001c0: 9372 efb9 679e 2e3a ef88 4b38 30ff baba
000001d0: ca48 2eb7 0395 673a 5bdb 6339 7759 f7b9
000001e0: dd87 85ba ced2 d938 2a4a 80b9 35d7 edba
000001f0: 77ec 9bb9 360b da38 e98b d239 22f6 91b9
00000200: 8a0a 6339 6df8 ad39 07a5 8b3a 80d8 d0b9
00000210: 228c 183a 4bad 81ba baba 21ba 54bb 2739
00000220: 93d9 03bb 677d a8ba 8d4c dc39 cdd4 1cb9
00000230: d1e3 213b 826e 9139 a1f1 df37 5855 ec39
00000240: 1621 80b8 45eb 643a ee15 61ba 6b0a ba3a
00000250: e9a8 293b 30ae 3aba ce64 c23a 3a98 023b
00000260: 3c34 a83a 79c4 af3a c93a e6ba daa7 07ba
00000270: f6c7 4dba 8b4f c6b9 3ea9 01b8 e4b4 0a3b
00000280: 60d1 c3ba a3c4 3a3a 8f0d 50ba a536 3e3a
00000290: 34df bb39 3e12 5dba 8ea8 743a 5f23 323a
000002a0: e0ec 52b7 f390 cdb9 a913 723a d795 fd38
000002b0: 1cd5 10ba 826a df3a 6cbe 783a 6511 bfb9
000002c0: 90d6 08ba a728 ac3a 4aca a839 a4e2 033b
000002d0: 07d3 c2b9 d498 bc3a bb78 3fb9 29da 35b9
000002e0: ef09 d3ba 4e88 c9b9 b73a cc3a b79b 92ba
000002f0: 907b 843a 77f9 f6b9 f12d 02ba a170 483a
00000300: d62a 5b38 f294 70b9 b2e1 41ba ca65 b43a
00000310: 7186 c439 d2a6 3d3a cc0f c4ba a654 3e39
00000320: 5573 623c 298b 1fbd 883e f1bc 866d 3c3b
00000330: 1c7e f1bc a6c4 3f3c 8bbf d1bc 363f 1ebc
00000340: 61a9 483d 24fb 9f3c 204f 203c 5247 683d
00000350: 2977 843d 055c 123d 6191 a43b 6755 f3bc
00000360: fafe 893d f645 9a3d 77e7 44bd 248a 87bd
00000370: fef9 88bd 6da9 08bc 0eb3 803c 3b71 80bd
00000380: d379 4dbd 4f86 d7ba b1fb 433a 672d c8ba
00000390: 3c80 c73a a7ef 2b3a e2e4 e0b9 9bb4 8739
000003a0: a717 173a 3b13 74ba 48bf 0438 5a19 1cba
000003b0: b17f 8fba ee02 8aba 772c b5ba 5b23 44ba
000003c0: 72ef 26bb e3a5 1b3b 9804 f6ba 4ef2 fc3a
000003d0: 6523 17b9 ab15 323a 99b7 903a e95f abba
000003e0: 0dc6 44ba a8ed 14b8 ba9d 41bb 165c 64ba
000003f0: 71c0 2f39 9674 963a 1bbd 033b 5864 c0ba

recon.bias f4 [3]
-0.008134829 0.009965954 0.0051375763
00000000: f247 05bc 3e48 233c 1d59 a83b

exp_avg f4 [64, 3, 9, 9]
2.834229e-07 2.5137712e-07 7.574774e-07 9.824502e-07 6.572364e-07 1.5129847e-07 6.708089e-08 8.4783164e-07
1.7623075e-06 -6.7106333e-07 -6.383235e-07 2.2235747e-08 3.0301806e-07 -2.9859635e-07 -1.3562758e-06 -1.7560359e-06
-7.137949e-07 7.1188464e-07 -1.3672699e-06 -1.1459972e-06 -3.058818e-07 -2.7362104e-08 -9.869567e-07 -2.6128967e-06
-3.2588437e-06 -2.0185764e-06 -3.0739807e-07 -1.5071904e-06 -1.0481965e-06 -2.7447814e-07 -1.7514778e-07 -1.2222066e-06
-2.8230236e-06 -3.3918081e-06 -2.337945e-06 -1.0780943e-06 -1.1707082e-06 -6.3321534e-07 -2.5039347e-07 -4.933665e-07
-1.2994831e-06 -2.1927988e-06 -2.2913493e-06 -1.6169122e-06 -1.2431527e-06 -3.378783e-07 -2.056662e-09 -1.4540166e-07
-7.9130916e-07 -1.4254321e-06 -1.6125394e-06 -1.1808503e-06 -6.3908067e-07 -7.7629136e-07 5.6056115e-07 6.2856776e-07
1.9841943e-07 -7.331964e-07 -1.596961e-06 -1.8165465e-06 -1.3520636e-06 -7.4238744e-07 -7.0921755e-07 1.096646e-06
1.0243532e-06 6.129376e-07 -4.4727614e-07 -1.7823882e-06 -2.5975094e-06 -2.5900902e-06 -2.019046e-06 -1.5425339e-06
1.2145881e-06 1.1179073e-06 8.523966e-07 -1.1046348e-07 -1.6200472e-06 -2.8288944e-06 -3.2604864e-06 -2.9280957e-06
-2.293814e-06 -9.570915e-07 -8.027183e-07 -7.665322e-07 -7.774554e-07 -7.4048575e-07 -6.869283e-07 -6.779134e-07
-7.457736e-07 -8.2666054e-07 -8.9455654e-07 -8.287174e-07 -8.6825963e-07 -9.1210893e-07 -8.588796e-07 -7.271786e-07
-6.1264467e-07 -6.237146e-07 -7.2661123e-07 -7.470519e-07 -8.22712e-07 -9.659553e-07 -1.0491325e-06 -9.694221e-07
-7.4958473e-07 -5.5549475e-07 -5.474422e-07 -6.5594594e-07 -5.4181226e-07 -7.186616e-07 -9.5054315e-07 -1.0794768e-06
-1.0012009e-06 -7.508812e-07 -5.468468e-07 -5.4759073e-07 -6.175044e-07 -4.6149538e-07 -6.18281e-07 -8.482787e-07
-9.85103e-07 -9.496565e-07 -7.860862e-07 -6.656375e-07 -6.7964464e-07 -6.836537e-07 -5.568037e-07 -5.802166e-07
-7.1572794e-07 -8.1022915e-07 -8.2155407e-07 -7.9955737e-07 -7.9533197e-07 -8.2470984e-07 -8.202003e-07 -7.0746887e-07
-6.009911e-07 -6.4300446e-07 -6.874306e-07 -6.9681806e-07 -7.279533e-07 -7.539936e-07 -7.8504956e-07 -8.5061623e-07
-8.377462e-07 -6.930702e-07 -6.882482e-07 -6.8160335e-07 -6.2153384e-07 -5.87257e-07 -5.5945634e-07 -5.7882113e-07
-7.133948e-07 -8.917348e-07 -7.8741766e-07 -7.586262e-07 -6.8567033e-07 -5.2002565e-07 -3.9566652e-07 -3.4254106e-07
-3.7883984e-07 -5.317378e-07 -1.1535282e-06 -1.3114676e-06 -1.533649e-06 -1.6189359e-06 -1.55382e-06 -1.5064542e-06
-1.498046e-06 -1.5039932e-06 -1.5351055e-06 -1.2101469e-06 -1.332865e-06 -1.5124359e-06 -1.5708586e-06 -1.5465193e-06
-1.5878395e-06 -1.6336829e-06 -1.6135193e-06 -1.5724445e-06 -1.3533056e-06 -1.3994091e-06 -1.504931e-06 -1.52332e-06
-1.5164306e-06 -1.5828992e-06 -1.6194125e-06 -1.5845702e-06 -1.5620151e-06 -1.4596357e-06 -1.4580113e-06 -1.5138583e-06
-1.4900918e-06 -1.4576219e-06 -1.4764927e-06 -1.4537155e-06 -1.4163585e-06 -1.4719163e-06 -1.4644596e-06 -1.4813015e-06
-1.5459312e-06 -1.4929989e-06 -1.3840586e-06 -1.2979907e-06 -1.2211991e-06 -1.2243536e-06 -1.3786372e-06 -1.4510568e-06
-1.5215071e-06 -1.6252892e-06 -1.5512751e-06 -1.3380086e-06 -1.1412325e-06 -1.0644341e-06 -1.16367e-06 -1.4062052e-06
-1.461799e-06 -1.59538e-06 -1.7177024e-06 -1.615637e-06 -1.3350277e-06 -1.1001134e-06 -1.0718784e-06 -1.251585e-06
-1.5133265e-06 -1.4675162e-06 -1.6444503e-06 -1.7507077e-06 -1.6324134e-06 -1.3746992e-06 -1.2052575e-06 -1.2334403e-06
-1.4130734e-06 -1.6141032e-06 -1.5136883e-06 -1.6624475e-06 -1.7387865e-06 -1.6539697e-06 -1.4819443e-06 -1.3948087e-06
-1.4306706e-06 -1.5382303e-06 -1.6653075e-06 1.7598792e-06 2.5359311e-06 3.732066e-06 3.87826e-06 2.6033601e-06
1.1965265e-06 1.4411261e-06 3.6375634e-06 5.722278e-06 8.578708e-07 1.5817793e-06 2.8082331e-06 2.9295902e-06
00000000: 5929 9834 02f5 8634 7355 4b35 bbdc 8335
00000010: f16c 3035 9b74 2234 1c0e 9033 8c96 6335
00000020: 6d88 ec35 1f23 34b5 4259 2bb5 ed00 bf32
00000030: 7cae a234 c54e a0b4 4809 b6b5 efb0 ebb5
00000040: 9d9b 3fb5 5718 3f35 0983 b7b5 2ad0 99b5
00000050: 1338 a4b4 e709 ebb2 9377 84b5 3959 2fb6
00000060: 82b2 5ab6 e176 07b6 7808 a5b4 ab4a cab5
00000070: c2af 8cb5 fd5b 93b4 4110 3cb4 b30a a4b5
00000080: 2d73 3db6 d29e 63b6 97e5 1cb6 0ab3 90b5
00000090: 3a21 9db5 3afa 29b5 d16d 86b4 e36f 04b5
000000a0: e669 aeb5 ff27 13b6 15c5 19b6 ae04 d9b5
000000b0: 67da a6b5 a465 b5b4 2e55 0db1 b41f 1cb4
000000c0: 5a6a 54b5 7951 bfb5 6f6e d8b5 b57d 9eb5
000000d0: 4a8d 2bb5 5662 50b5 7879 1635 d9ba 2835
000000e0: 1e0d 5534 dfd0 44b5 2a57 d6b5 10d0 f3b5
000000f0: 8d78 b5b5 7a48 47b5 0f61 3eb5 7830 9335
00000100: 827c 8935 c088 2435 2a21 f0b4 643a efb5
00000110: df50 2eb6 69d1 2db6 f27e 07b6 1009 cfb5
00000120: ee04 a335 010b 9635 40d0 6435 f137 edb3
00000130: 6670 d9b5 09d8 3db6 bbce 5ab6 4d80 44b6
00000140: 6def 19b6 6a75 80b5 627a 57b5 b1c3 4db5
00000150: 54b2 50b5 cbc5 46b5 5a65 38b5 dbf9 35b5
00000160: 2c31 48b5 aee7 5db5 7521 70b5 0775 5eb5
00000170: 5912 69b5 a6d7 74b5 c28d 66b5 5533 43b5
00000180: 9f74 24b5 576d 27b5 580c 43b5 0489 48b5
00000190: 57d8 5cb5 f9a5 81b5 ebcf 8cb5 171d 82b5
000001a0: 1237 49b5 4f1d 15b5 f1f3 12b5 4314 30b5
000001b0: 0e71 11b5 0dea 40b5 d428 7fb5 8ae2 90b5
000001c0: 0061 86b5 2a90 49b5 07cb 12b5 26fe 12b5
000001d0: 94c2 25b5 71c3 f7b4 f2f7 25b5 45b5 63b5
000001e0: e237 84b5 e6eb 7eb5 6f03 53b5 43ae 32b5
000001f0: d370 36b5 5384 37b5 4277 15b5 2ec0 1bb5
00000200: 7320 40b5 867e 59b5 c488 5cb5 2aa1 56b5
00000210: cc7e 55b5 a161 5db5 bc2b 5cb5 e4e8 3db5
00000220: cb53 21b5 ee9a 2cb5 df87 38b5 f90c 3bb5
00000230: 9268 43b5 0c66 4ab5 32bc 52b5 e755 64b5
00000240: 7be1 60b5 6c0b 3ab5 0ec0 38b5 6df7 36b5
00000250: 7bd7 26b5 fea3 1db5 8c2d 16b5 4960 1bb5
00000260: 1e80 3fb5 8d5f 6fb5 ee5e 53b5 65a4 4bb5
00000270: e80e 38b5 e497 0bb5 fe6b d4b4 7ce6 b7b4
00000280: 5a63 cbb4 bebc 0eb5 edd2 9ab5 af05 b0b5
00000290: c7d7 cdb5 374a d9b5 d98c d0b5 5f31 cab5
000002a0: 7810 c9b5 d0dc c9b5 d309 ceb5 556c a2b5
000002b0: e5e4 b2b5 e7fe cab5 4ad6 d2b5 0092 cfb5
000002c0: c01d d5b5 eb44 dbb5 1a90 d8b5 c80c d3b5
000002d0: 3aa3 b5b5 55d3 bbb5 09fd c9b5 e074 ccb5
000002e0: 2988 cbb5 0174 d4b5 975a d9b5 6bad d4b5
000002f0: 6ea6 d1b5 b3e8 c3b5 e3b0 c3b5 c62f cbb5
00000300: 2aff c7b5 82a3 c3b5 e72b c6b5 491d c3b5
00000310: b519 beb5 a98e c5b5 738e c4b5 22d1 c6b5
00000320: cb7d cfb5 0d63 c8b5 e4c3 b9b5 9f36 aeb5
00000330: 15e8 a3b5 7854 a4b5 9d09 b9b5 efc1 c2b5
00000340: 9636 ccb5 8324 dab5 6835 d0b5 a095 b3b5
00000350: 732c 99b5 addd 8eb5 662f 9cb5 d8bc bcb5
00000360: 0833 c4b5 d720 d6b5 ce8b e6b5 ddd8 d8b5
00000370: 342f b3b5 9ca7 93b5 76dd 8fb5 22fc a7b5
00000380: 811d cbb5 79f7 c4b5 e2b6 dcb5 dcf9 eab5
00000390: 4c19 dbb5 4e82 b8b5 55c4 a1b5 b08c a5b5
000003a0: d5a8 bdb5 2aa4 d8b5 ef29 cbb5 4321 dfb5
000003b0: 4060 e9b5 f7fd ddb5 38e7 c6b5 4335 bbb5
000003c0: 7805 c0b5 3175 ceb5 8883 dfb5 fd34 ec35
000003d0: f72e 2a36 6874 7a36 0022 8236 63b5 2e36
000003e0: 5698 a035 b76c c135 dd1c 7436 fe01 c036
000003f0: 6f48 6635 864d d435 1475 3c36 fa99 4436

exp_avg_sq f4 [64, 3, 9, 9]
9.667674e-10 9.669106e-10 9.940853e-10 9.943744e-10 9.742842e-10 9.853375e-10 9.854281e-10 9.730267e-10
9.798979e-10 9.569231e-10 9.566765e-10 9.869238e-10 9.865663e-10 9.662214e-10 9.806664e-10 9.783147e-10
9.61463e-10 9.704222e-10 9.629328e-10 9.667078e-10 9.923742e-10 9.873306e-10 9.675561e-10 9.814611e-10
9.80158e-10 9.642356e-10 9.726236e-10 9.623485e-10 9.665088e-10 9.852607e-10 9.810659e-10 9.655011e-10
9.74291e-10 9.732637e-10 9.611403e-10 9.692009e-10 9.532839e-10 9.558615e-10 9.748983e-10 9.767434e-10
9.628489e-10 9.661796e-10 9.644437e-10 9.551543e-10 9.627166e-10 9.678258e-10 9.719117e-10 9.959631e-10
9.964868e-10 9.766089e-10 9.850643e-10 9.892029e-10 9.788858e-10 9.81936e-10 9.738126e-10 9.743175e-10
1.0011899e-09 1.000709e-09 9.790727e-10 9.973263e-10 1.0032026e-09 9.85949e-10 9.87871e-10 9.631503e-10
9.57648e-10 9.815706e-10 9.831418e-10 9.664572e-10 9.871519e-10 9.877952e-10 9.646669e-10 9.693879e-10
9.689854e-10 9.628487e-10 9.796453e-10 9.794257e-10 9.654395e-10 9.813101e-10 9.80168e-10 9.597343e-10
9.644878e-10 6.655599e-10 6.65378e-10 6.659546e-10 6.6544653e-10 6.6417566e-10 6.639127e-10 6.640463e-10
6.639398e-10 6.64065e-10 6.651783e-10 6.658281e-10 6.6678774e-10 6.6574785e-10 6.635577e-10 6.630274e-10
6.633895e-10 6.6327543e-10 6.630052e-10 6.6487343e-10 6.660125e-10 6.6708616e-10 6.657178e-10 6.63054e-10
6.623595e-10 6.6290456e-10 6.629551e-10 6.626863e-10 6.641961e-10 6.6507766e-10 6.661269e-10 6.6504e-10
6.6266426e-10 6.620028e-10 6.624624e-10 6.6269384e-10 6.628971e-10 6.637794e-10 6.641103e-10 6.6523803e-10
6.64858e-10 6.6310296e-10 6.625278e-10 6.6270694e-10 6.6291095e-10 6.635316e-10 6.642373e-10 6.644477e-10
6.657665e-10 6.6583e-10 6.644141e-10 6.6402106e-10 6.6416306e-10 6.6418143e-10 6.6476696e-10 6.6418615e-10
6.64459e-10 6.6577055e-10 6.657882e-10 6.6451394e-10 6.6453154e-10 6.647925e-10 6.6450384e-10 6.648582e-10
6.6378114e-10 6.639524e-10 6.649607e-10 6.6482647e-10 6.638797e-10 6.6437805e-10 6.645676e-10 6.637063e-10
6.6367406e-10 6.640957e-10 6.640969e-10 6.6484396e-10 6.648428e-10 6.6442013e-10 6.6524003e-10 6.652196e-10
6.637688e-10 6.6319744e-10 1.2433025e-09 1.2420937e-09 1.2410513e-09 1.2405619e-09 1.2408846e-09 1.2419356e-09
1.242198e-09 1.2417027e-09 1.2416217e-09 1.243536e-09 1.241917e-09 1.2409146e-09 1.2409657e-09 1.2418111e-09
1.2427507e-09 1.2423708e-09 1.2413474e-09 1.2412378e-09 1.2445411e-09 1.242984e-09 1.2422211e-09 1.2427548e-09
1.243976e-09 1.2446255e-09 1.2435458e-09 1.2420134e-09 1.2417007e-09 1.2453378e-09 1.2439555e-09 1.243202e-09
1.2436275e-09 1.244664e-09 1.2450049e-09 1.2437364e-09 1.2421584e-09 1.2416228e-09 1.2446658e-09 1.2432185e-09
1.2419898e-09 1.2417326e-09 1.2422485e-09 1.2426282e-09 1.2420104e-09 1.2411151e-09 1.240727e-09 1.2430913e-09
1.2417706e-09 1.2401946e-09 1.2393337e-09 1.2394894e-09 1.2402368e-09 1.2406164e-09 1.2406774e-09 1.2407105e-09
1.2411256e-09 1.2404622e-09 1.239459e-09 1.2387802e-09 1.2388235e-09 1.2395694e-09 1.2402525e-09 1.2408146e-09
1.2412883e-09 1.2396006e-09 1.2397096e-09 1.2399425e-09 1.2400635e-09 1.2399268e-09 1.2398726e-09 1.2398579e-09
1.2403472e-09 1.2411936e-09 1.2390081e-09 1.239524e-09 1.2406702e-09 1.2413893e-09 1.2408866e-09 1.2397638e-09
1.2387916e-09 1.238981e-09 1.2401338e-09 1.2716947e-09 1.2819436e-09 1.3523845e-09 1.334468e-09 1.274516e-09
1.3121162e-09 1.3080371e-09 1.2635346e-09 1.2881906e-09 1.254754e-09 1.2634406e-09 1.3374915e-09 1.3201774e-09
00000000: 1bdf 8430 24e4 8430 44a0 8830 70aa 8830
00000010: 94e7 8530 7b6c 8730 ab6f 8730 55bb 8530
00000020: 18ad 8630 bd84 8330 107c 8330 4ba4 8730
00000030: b797 8730 e5cb 8430 22c8 8630 6375 8630
00000040: 7924 8430 b25f 8530 3058 8430 02dd 8430
00000050: 1064 8830 9bb2 8730 dbfa 8430 18e4 8630
00000060: 3eb6 8630 0686 8430 27ad 8530 a143 8430
00000070: 01d6 8430 c769 8730 30d6 8630 8db2 8430
00000080: d1e7 8530 acc3 8530 1e19 8430 ba34 8530
00000090: b204 8330 635f 8330 2ffd 8530 1a3e 8630
000000a0: 3c55 8430 6cca 8430 598d 8430 8146 8330
000000b0: 9450 8430 5804 8530 1a94 8530 56e2 8830
000000c0: c3f4 8830 5f39 8630 de62 8730 7cf4 8730
000000d0: 7b89 8630 cdf4 8630 fcd6 8530 c0e8 8530
000000e0: 3d9a 8930 5189 8930 0f90 8630 4d12 8930
000000f0: 0ee1 8930 ff81 8730 9fc5 8730 d75f 8430
00000100: 3e9e 8330 f2e7 8630 3a1f 8730 31d4 8430
00000110: 52ac 8730 f4c2 8730 3395 8430 4e3b 8530
00000120: 252d 8530 3a55 8430 34a4 8630 7a9c 8630
00000130: 62b0 8430 c8de 8630 98b6 8630 a6e7 8330
00000140: e68e 8430 9df2 3630 d0e5 3630 640e 3730
00000150: a3ea 3630 3591 3630 b47e 3630 1b88 3630
00000160: 9c80 3630 6c89 3630 c3d7 3630 7d05 3730
00000170: 0449 3730 d7ff 3630 b965 3630 6840 3630
00000180: e359 3630 dc51 3630 d83e 3630 4fc2 3630
00000190: 7712 3730 045e 3730 bafd 3630 4742 3630
000001a0: 6811 3630 c337 3630 513b 3630 6728 3630
000001b0: a592 3630 aed0 3630 831a 3730 08ce 3630
000001c0: da26 3630 4ef8 3530 a618 3630 ef28 3630
000001d0: 3d37 3630 5375 3630 9c8c 3630 f7db 3630
000001e0: 39c1 3630 b945 3630 401d 3630 db29 3630
000001f0: 3638 3630 e363 3630 8b95 3630 5aa4 3630
00000200: 2701 3730 9f05 3730 fca1 3630 5486 3630
00000210: 5290 3630 9d91 3630 d1ba 3630 f291 3630
00000220: 25a5 3630 7001 3730 ae02 3730 03a9 3630
00000230: 40aa 3630 9dbc 3630 4da8 3630 3dc1 3630
00000240: 7275 3630 7f81 3630 73c8 3630 01bf 3630
00000250: 617c 3630 739f 3630 caac 3630 2e70 3630
00000260: e96d 3630 958b 3630 aa8b 3630 3cc0 3630
00000270: 27c0 3630 69a2 3630 1bdc 3630 abda 3630
00000280: 9474 3630 5f4c 3630 d1e0 aa30 49b6 aa30
00000290: 9c91 aa30 6480 aa30 bf8b aa30 b9b0 aa30
000002a0: f5b9 aa30 88a8 aa30 aea5 aa30 09e9 aa30
000002b0: 12b0 aa30 cd8c aa30 998e aa30 58ac aa30
000002c0: 67cd aa30 09c0 aa30 079c aa30 2c98 aa30
000002d0: 660c ab30 9dd5 aa30 c5ba aa30 8ccd aa30
000002e0: 84f8 aa30 5e0f ab30 61e9 aa30 76b3 aa30
000002f0: 76a8 aa30 6e28 ab30 cbf7 aa30 48dd aa30
00000300: 41ec aa30 b910 ab30 b71c ab30 16f0 aa30
00000310: 90b8 aa30 b8a5 aa30 c910 ab30 dddd aa30
00000320: a2b2 aa30 95a9 aa30 bcbb aa30 18c9 aa30
00000330: 5bb3 aa30 db93 aa30 3386 aa30 63d9 aa30
00000340: ebaa aa30 7873 aa30 2e55 aa30 a85a aa30
00000350: f474 aa30 4f82 aa30 7584 aa30 9f85 aa30
00000360: 3a94 aa30 e27c aa30 9659 aa30 b441 aa30
00000370: 3a43 aa30 795d aa30 8175 aa30 4889 aa30
00000380: f399 aa30 925e aa30 6762 aa30 996a aa30
00000390: db6e aa30 0c6a aa30 2468 aa30 9f67 aa30
000003a0: d678 aa30 9e96 aa30 b949 aa30 e05b aa30
000003b0: 3484 aa30 819d aa30 d18b aa30 5064 aa30
000003c0: 1b42 aa30 c548 aa30 5471 aa30 c8c7 ae30
000003d0: 6130 b030 cdde b930 6b68 b730 0c2b af30
000003e0: fc55 b430 77c6 b330 aca8 ad30 2d0c b130
000003f0: bb73 ac30 5da5 ad30 ccd2 b730 9d71 b530

exp_avg f4 [64]
-2.0168525e-06 -2.7255672e-07 -1.0091672e-06 -1.2561103e-05 6e-45 4.6156874e-06 -2.4319431e-06 -2.318478e-05
4.484116e-06 6.445249e-07 6e-45 6e-45 0.0 6e-45 0.0 6e-45
-1.4923903e-05 -7.0042784e-06 6e-45 1.8966141e-06 -3.280501e-06 2.3182374e-06 -3.4173963e-06 -2.7121557e-06
6e-45 -1.8879624e-06 -2.135403e-06 -4.151673e-07 -4.045866e-06 -6.8473463e-07 0.0 2.5195308e-07
-2.5136355e-06 0.0 -3.8988637e-06 6e-45 -2.589752e-06 0.0 -1.1718774e-05 -2.430307e-06
-1.6370136e-06 1.9978766e-05 5.517081e-06 6e-45 6e-45 6e-45 -4.8895313e-06 -3.4016794e-05
6.8663496e-07 -4.8850734e-06 6e-45 -2.343054e-06 0.0 6e-45 -1.0412138e-05 -6.565971e-06
-4.803433e-06 -3.8756725e-06 6e-45 3.0842998e-06 -5.3087815e-06 1.1228473e-05 0.0 -5.2312907e-06
00000000: 4359 07b6 e953 92b4 b972 87b5 87bd 52b7
00000010: 0400 0000 74e0 9a36 7734 23b6 f07c c2b7
00000020: 4376 9636 6a03 2d35 0400 0000 0400 0000
00000030: 0000 0000 0400 0000 0000 0000 0400 0000
00000040: ad61 7ab7 4b06 ebb6 0400 0000 2a8f fe35
00000050: 9426 5cb6 0493 1b36 6c56 65b6 7b02 36b6
00000060: 0400 0000 e565 fdb5 f24d 0fb6 29e4 deb4
00000070: b9c1 87b6 9bce 37b5 0000 0000 2b44 8734
00000080: eeaf 28b6 0000 0000 fcd2 82b6 0400 0000
00000090: 9acb 2db6 0000 0000 c09b 44b7 5b18 23b6
000000a0: 5cb7 dbb5 1398 a737 5d1f b936 0400 0000
000000b0: 0400 0000 0400 0000 c110 a4b6 41ad 0eb8
000000c0: 3251 3835 76ea a3b6 0400 0000 5c3d 1db6
000000d0: 0000 0000 0400 0000 cbaf 2eb7 4351 dcb6
000000e0: 2d2d a1b6 c60b 82b6 0400 0000 defb 4e36
000000f0: 1622 b2b6 ed61 3c37 0000 0000 7288 afb6

exp_avg_sq f4 [64]
3.805825e-09 4.7214654e-09 1.9957335e-08 2.2767501e-09 7e-43 6.9770616e-09 2.1186637e-09 6.2671157e-09
2.9904597e-09 2.8341525e-09 7e-43 7e-43 0.0 7e-43 0.0 7e-43
4.720013e-09 4.074517e-09 7e-43 7.492041e-09 2.3081455e-09 1.7160792e-09 6.138409e-09 2.6622726e-09
7e-43 8.63399e-09 1.5714944e-08 5.2120646e-09 5.319885e-09 4.19222e-09 0.0 2.6143554e-09
4.0163446e-09 0.0 1.3433631e-09 7e-43 2.653607e-09 0.0 7.720129e-08 5.1790026e-09
2.525943e-09 1.4767738e-08 8.698994e-09 7e-43 7e-43 7e-43 7.1118977e-09 2.0735069e-08
3.9443915e-09 6.7081944e-09 7e-43 1.5719861e-09 0.0 7e-43 3.220072e-08 1.3706151e-08
1.0348297e-09 7.0248776e-09 7e-43 1.2191913e-08 1.9181593e-08 8.988428e-09 0.0 1.3185514e-08
00000000: 64c4 8231 733a a231 a56e ab32 0375 1c31
00000010: f401 0000 e2ba ef31 ed97 1131 2256 d731
00000020: b980 4d31 f0c2 4231 f401 0000 f401 0000
00000030: 0000 0000 f401 0000 0000 0000 f401 0000
00000040: ac2d a231 d5ff 8b31 f401 0000 58b6 0032
00000050: 539d 1e31 2bdb eb30 04ea d231 32f3 3631
00000060: f401 0000 b154 1432 87fd 8632 ce15 b331
00000070: 34ca b631 280b 9031 0000 0000 3aa8 3331
00000080: 2400 8a31 0000 0000 63a1 b830 f401 0000
00000090: bf5a 3631 0000 0000 dcc9 a533 fdf2 b131
000000a0: dc94 2d31 33b5 7d32 9572 1532 f401 0000
000000b0: f401 0000 f401 0000 ea5c f431 e61c b232
000000c0: 3c87 8731 e77d e631 f401 0000 580d d830
000000d0: 0000 0000 f401 0000 114d 0a33 4a78 6b32
000000e0: d539 8e30 7a5f f131 f401 0000 9a74 5132
000000f0: c5c4 a432 866b 1a32 0000 0000 8186 6232

exp_avg f4 [32, 64, 5, 5]
-8.486709e-07 -7.996746e-07 -7.4818155e-07 -7.4522904e-07 -8.151088e-07 -8.4723337e-07 -7.9996494e-07 -7.4096954e-07
-7.158244e-07 -7.5712876e-07 -8.6441713e-07 -8.103551e-07 -7.4377647e-07 -7.055656e-07 -7.311328e-07 -8.800434e-07
-8.126528e-07 -7.4098455e-07 -7.048768e-07 -7.338689e-07 -8.881025e-07 -8.0976866e-07 -7.370138e-07 -7.1158433e-07
-7.520341e-07 -8.5584816e-07 -8.117115e-07 -7.486908e-07 -7.2022914e-07 -7.549022e-07 -8.574283e-07 -8.0031765e-07
-7.31872e-07 -6.997325e-07 -7.264589e-07 -8.632442e-07 -7.9640677e-07 -7.2782655e-07 -6.9777184e-07 -7.2036005e-07
-8.718696e-07 -7.996754e-07 -7.314743e-07 -7.040378e-07 -7.257493e-07 -8.849402e-07 -8.121298e-07 -7.424819e-07
-7.1396573e-07 -7.339867e-07 -2.9362775e-06 -2.8561421e-06 -2.7740177e-06 -2.728312e-06 -2.740699e-06 -2.9434686e-06
-2.8447191e-06 -2.7457447e-06 -2.6872244e-06 -2.6905693e-06 -2.968038e-06 -2.8566903e-06 -2.745061e-06 -2.6746102e-06
-2.6659577e-06 -3.0031545e-06 -2.8878917e-06 -2.7701115e-06 -2.6901319e-06 -2.667956e-06 -3.0406181e-06 -2.9292044e-06
-2.811383e-06 -2.7244735e-06 -2.6880855e-06 -3.8237388e-07 -2.0798342e-07 -1.1656454e-08 -2.3324406e-08 -2.9122893e-07
-4.3890776e-07 -2.647457e-07 -7.208196e-08 -6.4485e-08 -2.9702952e-07 -4.7905036e-07 -2.9345432e-07 -1.13133595e-07
-1.0755733e-07 -3.04384e-07 -4.66199e-07 -2.8820435e-07 -1.109235e-07 -1.0294021e-07 -2.7220614e-07 -4.4714176e-07
-2.9295367e-07 -1.2725269e-07 -1.0987627e-07 -2.5127403e-07 6e-45 6e-45 6e-45 6e-45
6e-45 6e-45 6e-45 6e-45 6e-45 6e-45 6e-45 6e-45
6e-45 6e-45 6e-45 6e-45 6e-45 6e-45 6e-45 6e-45
6e-45 6e-45 6e-45 6e-45 6e-45 -3.0648758e-07 -3.2741224e-07 -2.2586303e-07
-1.4637338e-07 -2.0805638e-07 -3.2441665e-07 -3.2554343e-07 -1.8820039e-07 -5.6179456e-08 -1.0891083e-07 -3.659426e-07
-3.5594942e-07 -2.1581859e-07 -5.1929888e-08 -7.0517956e-08 -4.0097555e-07 -3.6511955e-07 -2.324108e-07 -7.4767456e-08
-7.76e-08 -4.347068e-07 -3.6858225e-07 -2.2111205e-07 -7.377452e-08 -8.1312464e-08 -7.3782184e-07 -7.032931e-07
-6.666508e-07 -6.6110834e-07 -7.018401e-07 -7.4014275e-07 -7.0377104e-07 -6.631596e-07 -6.480488e-07 -6.7533983e-07
-7.456346e-07 -7.0237337e-07 -6.592573e-07 -6.4134343e-07 -6.6139376e-07 -7.4721373e-07 -6.9432133e-07 -6.495545e-07
-6.360486e-07 -6.5942805e-07 -7.459945e-07 -6.8637524e-07 -6.416879e-07 -6.359789e-07 -6.681813e-07 -3.9309647e-08
-5.441825e-08 1.790678e-08 7.294894e-08 -1.8431887e-08 -2.5964086e-08 -5.028023e-08 1.3885028e-08 7.536222e-08
5.8721987e-09 -7.757732e-08 -9.113673e-08 -2.8034675e-08 4.671931e-08 1.9338177e-08 -1.2882661e-07 -1.1698146e-07
-4.2363094e-08 2.9504179e-08 1.6667467e-08 -1.4281454e-07 -1.03654465e-07 -1.6459616e-08 4.093091e-08 1.3173427e-08
-3.7113784e-07 -3.9986816e-07 -4.0477516e-07 -4.1281996e-07 -4.451875e-07 -3.3407704e-07 -3.4080796e-07 -3.4033016e-07
-3.4196287e-07 -3.6314827e-07 -3.4545448e-07 -3.407346e-07 -3.4402103e-07 -3.3848912e-07 -3.3752022e-07 -3.7058288e-07
-3.5673995e-07 -3.6130442e-07 -3.592062e-07 -3.4730115e-07 -3.9393223e-07 -3.662417e-07 -3.5490189e-07 -3.5756668e-07
-3.5657237e-07 -8.364334e-07 -7.9036585e-07 -7.253371e-07 -6.943993e-07 -7.2784763e-07 -8.4366303e-07 -7.850435e-07
-7.1412416e-07 -6.818715e-07 -7.122265e-07 -8.46751e-07 -7.774328e-07 -7.076846e-07 -6.8271254e-07 -7.1499136e-07
-8.415549e-07 -7.6935066e-07 -7.05781e-07 -6.9083904e-07 -7.272212e-07 -8.3432263e-07 -7.6898726e-07 -7.138663e-07
-7.0603517e-07 -7.438684e-07 -6e-45 -6e-45 -6e-45 -6e-45 -6e-45 -6e-45
00000000: 38d0 63b5 38a9 56b5 a5d6 48b5 c00b 48b5
00000010: dacd 5ab5 6f6d 63b5 2cbd 56b5 0ae7 46b5
00000020: 1427 40b5 7e3d 4bb5 4b0a 68b5 2e87 59b5
00000030: eea7 47b5 1966 3db5 1043 44b5 1f3c 6cb5
00000040: 1325 5ab5 12e8 46b5 c436 3db5 16ff 44b5
00000050: f065 6eb5 e15e 59b5 34d7 45b5 b403 3fb5
00000060: 64df 49b5 70bd 65b5 64e4 59b5 a4f9 48b5
00000070: c555 41b5 7ca4 4ab5 062a 66b5 69d5 56b5
00000080: dc75 44b5 40d5 3bb5 e001 43b5 b1b9 67b5
00000090: a8c8 55b5 dc5f 43b5 844e 3bb5 c45e 41b5
000000a0: 6c0a 6ab5 46a9 56b5 885a 44b5 1cfd 3cb5
000000b0: 1dd1 42b5 a18c 6db5 2301 5ab5 f84e 47b5
000000c0: 5aa7 3fb5 2f07 45b5 dd0c 45b6 26ac 3fb6
000000d0: 4329 3ab6 0b18 37b6 daec 37b6 6888 45b6
000000e0: e7e7 3eb6 8943 38b6 2a56 34b6 a18f 34b6
000000f0: 812e 47b6 91b5 3fb6 ca37 38b6 747d 33b6
00000100: cee8 32b6 cd89 49b6 9acd 41b6 27e6 39b6
00000110: 1d88 34b6 230b 33b6 6c0d 4cb6 5993 44b6
00000120: 31ab 3cb6 19d6 36b6 f564 34b6 1149 cdb4
00000130: 0c52 5fb4 a041 48b2 e95a c8b2 335a 9cb4
00000140: 06a3 ebb4 5f22 8eb4 7acb 9ab3 017b 8ab3
00000150: 6d77 9fb4 1798 00b5 0e8c 9db4 daf3 f2b3
00000160: 44fa e6b3 386a a3b4 e749 fab4 81ba 9ab4
00000170: d734 eeb3 fb0f ddb3 ba23 92b4 b20e f0b4
00000180: 3f47 9db4 f4a2 08b4 1ef5 ebb3 d7e6 86b4
00000190: 0400 0000 0400 0000 0400 0000 0400 0000
000001a0: 0400 0000 0400 0000 0400 0000 0400 0000
000001b0: 0400 0000 0400 0000 0400 0000 0400 0000
000001c0: 0400 0000 0400 0000 0400 0000 0400 0000
000001d0: 0400 0000 0400 0000 0400 0000 0400 0000
000001e0: 0400 0000 0400 0000 0400 0000 0400 0000
000001f0: 0400 0000 558b a4b4 32c7 afb4 c284 72b4
00000200: cf2a 1db4 1a66 5fb4 7c2b aeb4 59c6 aeb4
00000210: 2114 4ab4 f749 71b3 5de2 e9b3 c576 c4b4
00000220: 5119 bfb4 c3bb 67b4 8409 5fb3 a86f 97b3
00000230: a945 d7b4 a605 c4b4 988c 79b4 d88f a0b3
00000240: 0da5 a6b3 a661 e9b4 8fe1 c5b4 d16a 6db4
00000250: f96d 9eb3 009e aeb3 bb0e 46b5 efc9 3cb5
00000260: e5f3 32b5 0577 31b5 1666 3cb5 39ae 46b5
00000270: c7ea 3cb5 fb03 32b5 93f5 2db5 0049 35b5
00000280: 9f27 48b5 bb8a 3cb5 d1f7 30b5 c928 2cb5
00000290: a28a 31b5 2394 48b5 6661 3ab5 0c5d 2eb5
000002a0: edbc 2ab5 8d03 31b5 5a40 48b5 593f 38b5
000002b0: 7540 2cb5 23b8 2ab5 125d 33b5 6ad5 28b3
000002c0: 80b9 69b3 6dd1 9932 1ba8 9c33 2654 9eb2
000002d0: a107 dfb2 b3f3 57b3 008b 6e32 d2d6 a133
000002e0: 68c4 c931 9598 a6b3 f2b6 c3b3 e7d0 f0b2
000002f0: 6da8 4833 1a1d a632 9753 0ab4 3d37 fbb3
00000300: b7f2 35b3 6070 fd32 262c 8f32 9058 19b4
00000310: a598 deb3 1463 8db2 03cc 2f33 5851 6232
00000320: cc40 c7b4 76ad d6b4 e04f d9b4 8ba1 ddb4
00000330: 1b02 efb4 335b b3b4 4af8 b6b4 9fb6 b6b4
00000340: 0597 b7b4 b8f6 c2b4 e776 b9b4 35ee b6b4
00000350: e4b1 b8b4 97b9 b5b4 6d34 b5b4 86f4 c6b4
00000360: f785 bfb4 4df9 c1b4 edd8 c0b4 b574 bab4
00000370: a27d d3b4 e09f c4b4 5889 beb4 97f7 bfb4
00000380: ef6e bfb4 4487 60b5 8729 54b5 c9b4 42b5
00000390: c266 3ab5 4f61 43b5 1578 62b5 c7bb 52b5
000003a0: 3db2 3fb5 da09 37b5 d52f 3fb5 494c 63b5
000003b0: c6b0 50b5 b7f7 3db5 a643 37b5 d5ed 3fb5
000003c0: 36e7 61b5 6085 4eb5 e774 3db5 1972 39b5
000003d0: 4336 43b5 37f6 5fb5 676c 4eb5 85a0 3fb5
000003e0: 5e86 3db5 3fae 47b5 0400 0080 0400 0080
000003f0: 0400 0080 0400 0080 0400 0080 0400 0080
